cnn_quantized_final.tflite (tflite, 290632 bytes, 11 tensors)

sequential_2/batch_normalization_2/FusedBatchNormV3;sequential_2/conv2d_8/BiasAdd/ReadVariableOp;sequential_2/conv2d_8/BiasAdd f4 [32]
00000000: f7b2 883d fb7d e83f 9251 a3bf 9262 42be
00000010: 4ff7 a7be a8ac d9be c6e2 e1bf ffa6 82bf
00000020: c8b5 22bf ef8e f3bf 34dd d23f 3f9a 9a3f
00000030: 1b0e b63f 9476 ba3f 5c88 ccbe dca3 34be
00000040: bf15 ea3f 2bba a9bf 9ec2 e7bf 2d13 ff3e
00000050: 8610 9c3f 01fc 09bf dc2f 7cbe f6f2 a23c
00000060: 4262 cb3f 9025 f0be 521b ef3b 95be 82bf
00000070: b0d0 b13e d419 1a3f b062 f7be 6006 d93f
0.0667476 1.8163446 -1.2759268 -0.18982914 -0.3280587 -0.4251454 -1.7647331 -1.0207213
-0.63558626 -1.9027995 1.6473756 1.2078322 1.4223055 1.4567437 -0.39947784 -0.17640632
1.8287886 -1.3259939 -1.8106267 0.49819317 1.2192543 -0.5390015 -0.24627632 0.019891243
1.5889361 -0.46903658 0.007296958 -1.0214411 0.34729528 0.6019566 -0.4831748 1.695507

sequential_2/dense_4/BiasAdd/ReadVariableOp f4 [32]
00000000: dba9 c73a ed87 c438 a95d 983b b399 813a
00000010: 62a9 543b 7ce3 d13b abcd df3a c216 9539
00000020: 540e 843b c791 ce39 e65f aa3b 8312 dc3b
00000030: d443 9f3b 390a 7e3a fc5b 4f3a 37fb e13b
00000040: 0ab7 b63b 49e3 953b d9e4 153b 468c 8f3a
00000050: b016 8e3b 48e3 043b 5ebc 203b b53b 933b
00000060: de76 2b39 3a70 0f3c 35fb a73b b6b2 013b
00000070: 3950 0db9 fc69 833b 2e20 423b 4841 bb3b
0.0015233116 9.3713265e-05 0.004649837 0.0009887725 0.0032449593 0.006405292 0.0017074844 0.0002843645
0.0040300284 0.00039399994 0.0051994203 0.006716074 0.0048603807 0.00096908543 0.000791013 0.006896402
0.005576019 0.0045742136 0.0022872 0.0010951839 0.0043362007 0.0020277072 0.0024526338 0.0044932016
0.00016352112 0.008754784 0.0051263818 0.0019790358 -0.00013476693 0.004010437 0.0029621231 0.0057145692

sequential_2/conv2d_9/BiasAdd/ReadVariableOp f4 [64]
00000000: 866a b6bb 3d02 b43a 9754 ddbb b11d 513c
00000010: 0152 42bc e915 8e3b 2d5d 12bc 2e73 8abc
00000020: 27cd c1bb d63b 2cbb be0b b0b9 1053 ab3b
00000030: 00c7 4a3c 4af2 023d a2db d4b9 9a95 0e3c
00000040: 9a41 9dba 7336 e9ba 725a 4c3a d9c0 f43b
00000050: 0987 f7bb e3ce 2fbb c38e 00bc 0d47 8b3b
00000060: d400 b43b 6a89 0cbc fc18 7f3c ca9c 45bb
00000070: c7f1 063d f048 d5bb 8e47 2ebc 6909 95bc
00000080: 41a0 f63c 7e44 0e3c 16dc 603c b1ff 8b3c
00000090: 85e1 2ebc 880a d23a 8f95 ae3c a3ca a53c
000000a0: 2ebb 083c 328c db3b 863e 83bb 1c97 e9bb
000000b0: f970 8e3c 42c3 333c c15a 42bc a82f d6ba
000000c0: 11b4 4d3c 3312 073b e496 01bc 6c45 863c
000000d0: 9a18 413c 0056 2f3d d348 9ebc 4f12 1c3c
000000e0: 7d26 92bc 8e4b 173c db7f 6b3b fa76 e83b
000000f0: 5105 833c a51c 8c3c ce63 863b 31d9 1dbc
-0.005566898 0.0013733577 -0.0067544687 0.012763427 -0.011860372 0.004336108 -0.008933348 -0.016900625
-0.0059143486 -0.0026280782 -0.00033578085 0.0052284077 0.012376547 0.031969346 -0.0004059943 0.00870266
-0.00119977 -0.0017792716 0.000779546 0.0074692783 -0.0075539392 -0.0026826195 -0.007846537 0.0042504133
0.005493263 -0.008577684 0.015569922 -0.0030153268 0.03294542 -0.006508939 -0.010637177 -0.018192964
0.030105712 0.008683322 0.013724348 0.017089697 -0.010673885 0.0016024867 0.02131155 0.020238226
0.008345408 0.006700062 -0.004005256 -0.0071286093 0.017387854 0.010971846 -0.011862458 -0.0016341107
0.012555138 0.0020610213 -0.00790951 0.016390525 0.011785651 0.042806625 -0.019321835 0.0095258495
-0.017840618 0.009234322 0.0035934362 0.0070942612 0.015993746 0.017103503 0.004101253 -0.009634302

sequential_2/conv2d_11/BiasAdd/ReadVariableOp f4 [128]
00000000: 3aa0 983b 0815 8a3b 0815 3b39 b2e4 943b
00000010: 2495 bd3b 46aa 0ab9 e78c a7bb 6bb1 bbbb
00000020: 1dae f63a 2ebb e9bb caa1 3dbb 8984 e739
00000030: 04c2 6d3a bd7c b639 a64a 2f3a f4b8 b43b
00000040: 7279 073b 484c 053c 47af ebba 9851 b7b9
00000050: d2ae a1bb dcd3 e239 b8e3 cb3b b88a 6c3b
00000060: fbe6 64b9 b897 b6bb 2793 9b3b 64ae 823b
00000070: aa20 253b e5a0 f0ba 3114 3f3a e724 43bb
00000080: b38a f93b edb4 7e3b 4078 8b3b 2fc0 013b
00000090: f776 adba 3b53 743b 1aa1 80bb e546 b5bb
000000a0: cdb1 f23b 51b9 60bc b7de 4ebb c1fd 3c3c
000000b0: e570 67bb dc4b 18bc 9f12 123c 670f d2ba
000000c0: 16da 3abc ec70 8339 7f53 6c3b f885 e3b9
000000d0: f343 8f3a 0bbf 5a3b 3b2a 453a d077 063b
000000e0: 3c82 a73b fbde 3f3b 1090 333b f170 2fbb
000000f0: a7c1 613b 4940 efbb 9ca2 a53b 0036 8c3b
00000100: be59 ac3b c720 de3a ec02 48bc deaa 6fbb
00000110: 9ea9 94ba 1e28 883b ebd4 d239 12c7 973b
00000120: 83f8 01bb 09fc 41bc ddb2 61bb 27d3 db3a
00000130: ee5b ec3b 823f 653b b045 0a3c 0273 723b
00000140: 6037 30ba a760 8ebb 0b38 96bb 4af6 1dbc
00000150: a460 93bb 6b53 063c e0cc 343c 34b9 743b
00000160: f525 50bc c4f6 143a 5f40 ed3b a3b5 1fbb
00000170: 5fc9 0e3c 1e98 61bb 0411 2a3b 779b d1bb
00000180: 1770 01ba 8420 2b3b 43a1 80bb b7ef 88bb
00000190: fd25 9b3b 6c4a d03a 5616 3cbc 22dc f039
000001a0: a0df a6ba e519 cb3b 4f5b ebba af5c 2abc
000001b0: 05be 733b 0906 d7bb 29a7 76bb 0312 b83a
000001c0: 022b 403c 4d8a ac3b ff9d c53a 4271 413b
000001d0: b29e 2f3c 6594 f63a 5061 5e3b eb95 0f3b
000001e0: 805b 0fbc f420 18bc 7f6a c9ba 75e8 54bb
000001f0: 456f 70b9 29c4 633b ad6d 6238 8b86 173a
0.0046577724 0.004213933 0.00017841544 0.004543864 0.005785601 -0.00013224137 -0.0051132324 -0.005727937
0.00188202 -0.0071329093 -0.0028935545 0.000441585 0.0009069743 0.00034806682 0.00066868437 0.005515212
0.0020671752 0.008135863 -0.0017981314 -0.00034965272 -0.0049341703 0.00043263927 0.0062222145 0.0036093425
-0.00021829821 -0.0055722855 0.0047477665 0.003988074 0.0025196471 -0.0018358497 0.00072890805 -0.0029776634
0.007615411 0.0038865164 0.0042562783 0.0019798388 -0.0013234307 0.0037281055 -0.003925455 -0.005532133
0.0074064494 -0.013716058 -0.0031565854 0.011535109 -0.0035315093 -0.00929543 0.008915572 -0.0016026319
-0.011404535 0.000250704 0.003606051 -0.00043396628 0.0010930285 0.003337803 0.00075212464 0.002051819
0.0051119607 0.0029277194 0.00273991 -0.00267702 0.0034447701 -0.0073013646 0.005054785 0.0042788982
0.0052597215 0.0016947024 -0.012207728 -0.003657035 -0.0011342054 0.004155173 0.00040212958 0.0046318853
-0.0019831962 -0.011839875 -0.0034438886 0.0016771302 0.0072131073 0.003498048 0.008439466 0.003699482
-0.00067221187 -0.004345018 -0.0045843176 -0.009641239 -0.0044976044 0.008198599 0.011035174 0.0037341835
-0.012704362 0.0005682523 0.0072403396 -0.0024369739 0.008715003 -0.0034422944 0.0025950084 -0.0063967067
-0.0004937662 0.002611191 -0.003925474 -0.004178967 0.004734753 0.001589132 -0.011479935 0.0004594038
-0.001273144 0.006198155 -0.0017956289 -0.010398074 0.0037192118 -0.0065619987 -0.0037636256 0.0014043454
0.011729004 0.00526551 0.0015076994 0.002951697 0.010718988 0.0018812536 0.0033932514 0.0021909426
-0.008749843 -0.0092852 -0.0015366821 -0.0032487188 -0.00022929635 0.0034754372 5.3984742e-05 0.00057802413

sequential_2/conv2d_10/BiasAdd/ReadVariableOp f4 [128]
00000000: 0db1 77bb ba38 3a3c dc1a b7ba 7011 b83b
00000010: fc79 0aba 17a2 3a3c 8879 1fbb 078f 8e3a
00000020: fd74 173c 7afc e7bb 3ff7 f03b f631 73bb
00000030: 3dc3 15bc 86e1 7e3c d112 00ba 39c5 6ebb
00000040: c397 47bc 13e6 a8bb 8bf5 bfbb e686 e3bb
00000050: 935f 86bc 55c0 b33a 4a63 913b 0c78 f0bb
00000060: c0d4 17bc 1d99 b3bb 0f29 11bc 4d7d fb3a
00000070: fb1a 1abb f4fa 183c 815e dc3b 82e3 023b
00000080: 71a3 2738 a959 17bb 9347 61bc 5ddb a13a
00000090: 5ffa 8938 9c75 ce3b c737 5ebb f17b 273b
000000a0: 41b5 6bbb 2188 3dbc 5693 62bb 93b8 723a
000000b0: ff00 873b ee66 f8ba 8708 0d3b 63d5 833c
000000c0: 91bd 3cbb 6aa6 72bc 780a a8bb 7ad7 d5bb
000000d0: 4d2d 803b d689 043c 95db c63b ef4c 16bc
000000e0: 8788 3bbb 965e 4fba 47ac ffbb 00fc 9638
000000f0: 2f0b d03b c01e 0e39 204f 61bb 283b 0fbb
00000100: 3524 8b3a cb7e 9bb9 6f44 90bb 4553 fe3b
00000110: 1699 dfbb caa3 8cbb 6853 23bb 2945 ae3a
00000120: c3f2 843b 9813 d53b a0c0 6b3b 98c7 663b
00000130: a6c0 9fba bfda 4bb9 1971 f83b 4d50 68ba
00000140: c047 91bb f6d3 ed3b cc90 7abc 2fbb a83b
00000150: e108 9cbb 9837 053b ee36 233a d1c1 af3a
00000160: f8eb 4c3a 49f2 2a3a f70b 123b f322 6dbb
00000170: d32d 9cbb 4ea4 483a e22f 8a3a a319 653b
00000180: b1c6 3a3b 170e 09b9 14fc 653a 78ac 19bb
00000190: bc9b 183b 0423 813a 92d9 5fbc f64c 8738
000001a0: 503f b939 d6fb ccbb ca86 cc3a d365 8f3a
000001b0: 28c8 1fbc d5a4 6ebb a521 38bc d942 98bb
000001c0: 8543 0d3c 609b cfb5 d4bd 973b 926c 9cbb
000001d0: 34bb a8bb 5fc8 2a3c 69ea 2a3c ee8b 04bc
000001e0: a96e f5bb e5cc d73c e819 443b 3e09 1d3b
000001f0: fc42 00bb 2abd 72bb c990 b5bb 65dd 0d3b
-0.003779474 0.011366064 -0.0013969797 0.005617313 -0.00052824593 0.011391184 -0.0024333913 0.0010876366
0.009244201 -0.007079658 0.007353693 -0.0037108636 -0.009140787 0.015556699 -0.00048856164 -0.0036433472
-0.012182179 -0.00515438 -0.0058581284 -0.0069435714 -0.016402995 0.0013713936 0.004436885 -0.0073385295
-0.009267032 -0.005480899 -0.008859887 0.0019187123 -0.0023514617 0.009337176 0.006725133 0.001997203
3.996812e-05 -0.0023094213 -0.013749975 0.00123487 6.579304e-05 0.006300641 -0.0033907758 0.0025556053
-0.003596619 -0.0115681 -0.0034572682 0.0009259071 0.004119992 -0.0018951574 0.0021519975 0.016092962
-0.0028799514 -0.014810184 -0.005128201 -0.006525931 0.0039116503 0.008089503 0.0060686567 -0.009173616
-0.0028615312 -0.0007910518 -0.0078025195 7.199496e-05 0.0063489894 0.0001355363 -0.0034379438 -0.0021855328
0.0010615649 -0.00029658372 -0.004402689 0.0077613913 -0.006823669 -0.004291986 -0.002492154 0.0013295758
0.0040572598 0.00650258 0.0035972968 0.0035214182 -0.0012188151 -0.00019441078 0.0075818417 -0.00088620634
-0.004433602 0.0072579337 -0.015293311 0.005149267 -0.0047618006 0.0020327326 0.00062261417 0.0013409202
0.00078171445 0.00065210887 0.0022284964 -0.0036184161 -0.004766205 0.0007653878 0.0010542835 0.0034957908
0.0028499777 -0.00013070587 0.00087732193 -0.0023448747 0.0023286184 0.0009852354 -0.013662713 6.451637e-05
0.0003533312 -0.006255607 0.0015604135 0.001094038 -0.009752311 -0.0036414166 -0.01123849 -0.0046466407
0.008622055 -1.5467922e-06 0.0046307836 -0.004773685 -0.0051492695 0.010423749 0.010431864 -0.008090002
-0.0074899984 0.026342819 0.0029922668 0.0023961808 -0.0019571176 -0.003703902 -0.0055409414 0.0021646854

sequential_2/dense_5/MatMul f4 [1, 32]
00000000: 4702 b8bd d5cf 2abe 429c 6b3e 2516 b3bd
00000010: cf23 ca3e 2b9a aa3e bb2c ffbe 7993 5cbe
00000020: 87fb ee3d e7ae a1bd 002e 693e 4c29 8a3e
00000030: d924 0e3e b252 4ebe 8d64 b6be 8b0d 603e
00000040: 30e5 fa3e f726 313e c127 ddbe 81f8 b7be
00000050: 1f37 e03e 29f0 d5bd e8ee fc3e dd8d eb3d
00000060: 4e53 f7be 7eae bd3e b09c 093e e55e b23e
00000070: aaa6 9bbe 251d 953e 2d5c dd3e 4b1c 583e
-0.08984809 -0.16680844 0.23008826 -0.08744458 0.39480445 0.33320746 -0.49838814 -0.21540631
0.11669069 -0.07894688 0.22771454 0.26984632 0.13881244 -0.20148733 -0.3562359 0.21880166
0.4900298 0.1730002 -0.43194392 -0.3593178 0.43792054 -0.104461975 0.4940102 0.11501668
-0.48305744 0.3704719 0.13438678 0.34838024 -0.30400592 0.29123798 0.43234387 0.21104543

sequential_2/conv2d_8/Conv2D f4 [32, 3, 3, 3]
00000000: 928a 8b3f e645 f8bf cf21 bd3f d361 c03f
00000010: 490f fd3f 457b f1bf b1fa 2cbf 82ca b4be
00000020: 7e6b dbbf bd27 813d 2fbc 0540 d882 b43f
00000030: ad59 22c0 cece 0b40 2fe5 1f40 0746 063f
00000040: 7dbe 823f a667 4ac0 16e4 2abf 9ec7 e43f
00000050: 59f6 0a40 dbfa 0bbf b221 bdbf 29ec 2f3e
00000060: 6005 e0bf 36e4 70bf f214 25c0 31c1 b03f
00000070: c772 57bf 91fc 253f fa0d 1cbd b8d1 803e
00000080: ffa5 9bbf 6fcb 0bbf e72f e2be f0ec c03e
00000090: 3f3f 9d3f 13da 81bf e2f4 98bf 5d5b 9cbf
000000a0: 7c11 2fbe 7c8d 4abf 1e49 a0bd 9660 bd3e
000000b0: aacb 2f3f ab93 6e3f 1db4 7e3f 1ef5 59bf
000000c0: 650e 833d de0f 27bf be13 24bf b835 593f
000000d0: 4564 5bbf d53b 0abf f8b5 b8bf 9114 383f
000000e0: 500f b3bf 0682 963f d96b abbf 5ff8 febd
000000f0: d7f3 bb3f 2796 b23f 18fb 9ebf f05d fe3e
00000100: ba2d e93f 59f8 e93e 6ea5 503f 3a38 593f
00000110: 2454 b83f b6b9 453e 7bdc 1a3f 328c 02c0
00000120: a6b7 06c0 e6c2 b43e 77f5 b23f 9fcd e53f
00000130: bcae aabe 476a 9bbe 14f0 48be 264a d9bf
00000140: e474 f13e b4f3 a6bf 0a1c 1ec0 d12f 3ac0
00000150: 1128 22c0 6668 053f b767 813f 6eb1 1a40
00000160: d019 503e 6c3a b7bf 2776 2540 70d7 41bf
00000170: 139f 3540 41ad 28c0 01d3 76be d6a3 203f
00000180: 5cf5 e3bf 000a 0ec0 fc9b de3f 6e10 70bf
00000190: ddcc 24c0 f00a 913f 3b08 4d40 3241 0c40
000001a0: d612 fbbf 5344 4840 7554 9ebf 041d 5b40
000001b0: ad35 0dc0 c225 9abf 20d9 f3bf 5718 76bf
000001c0: 2a4e a63f 7ad3 1bbf 7550 00c0 0605 c63f
000001d0: 99f8 853f d990 bf3f aa4b 73be d85b 21c0
000001e0: feb1 c03f 11f0 1840 687d 92bf 3597 9b3f
000001f0: d6d4 a4bf 19e6 683f 1804 583f a368 1140
00000200: facb 02c0 239b 923f e7b7 17c0 00f8 0740
00000210: c2c0 943f 1372 8f3f 4bff bcbd eabf 84bf
00000220: f2d0 4340 8942 f03f e209 6cc0 973b b93d
00000230: d2a2 1540 6dc0 5bc0 d14a 6bc0 6f83 c7be
00000240: fae4 64c0 b295 42be 9868 41be 9d5e 11be
00000250: df26 4040 9d86 b7bf 8218 d63f cd1c 1e40
00000260: 50d7 4cbf 0ed5 373f 2ed0 913f 8cf6 2ac0
00000270: 3eb9 d13f 5c01 383f a679 14bd 177e 2740
00000280: 86f7 debf 26e9 0140 c50a b7be a63b 183e
00000290: 38d0 eebe ba6b 8d3d ec18 4cbe f4c6 0e3f
000002a0: 87f5 18bf b7ad 943d 18a5 c23d d5db dfbe
000002b0: e286 f7bd 40dd d6bc f418 ac3e 6a86 473e
000002c0: e651 61bf 1c8e 1dbf ca7e 183f 8a06 2e3f
000002d0: d925 053f 675a b53e 03f7 3a3f ec4b 193f
000002e0: 4390 153f 9449 153f d0d0 213f 3908 4f3f
000002f0: e91b 30bc a824 25c0 45b2 c43f dd60 9b3f
00000300: 2ea0 fabd 7db2 d6bf 7e4a 20bf 6bda 523f
00000310: b11f 9f3f 7479 cabf 4d42 2ebf 04e1 913f
00000320: 60b3 2ac0 3ea6 ea3f 6495 4f3f 58a6 f6be
00000330: cd32 c33e 773f 15bf fea3 043e c1c5 acbd
00000340: 6b8f 2ebe 2bd2 ec3f 74aa 143c 4bdd a63f
00000350: e9ce 24c0 2c5e ab3f 4dc6 893f 67b8 f63f
00000360: a4a9 813e 108f 5f3e eb88 f8bf 98d3 0d40
00000370: f0bc 07c0 9e73 fabf a3b8 f93f 999b debf
00000380: 81d8 0440 eef1 1e40 6326 34c0 7663 1440
00000390: 08e6 1cc0 9306 2540 cce4 d03f a6c7 00c0
000003a0: bb0a f43f 7954 993f effb 2240 4443 c03f
000003b0: afd3 36be bcd8 da3f 5aae 05bf 1d0d 0dc0
000003c0: e04b c2bf d214 43bf d63d 14c0 c426 67bd
000003d0: e07d 78be 8667 283f 10a6 19bf 41c6 e33d
000003e0: ab1c 0e3f 8c57 a33e c56d 023e bfc5 853e
000003f0: a924 4b3e 9ca1 72be 9443 2a3e 6bfa babe
1.0901663 -1.9396331 1.4775943 1.5029854 1.977029 -1.8865744 -0.67570025 -0.3531075
-1.7142179 0.063064076 2.0896108 1.410243 -2.5367234 2.1844974 2.4983633 0.52450603
1.0214382 -3.1625762 -0.6675428 1.7873418 2.1712859 -0.5467965 -1.4775908 0.17179932
-1.750164 -0.9409822 -2.5794034 1.3808957 -0.8415951 0.6483851 -0.038099267 0.25160003
-1.2160033 -0.5460729 -0.44177172 0.3768077 1.2284926 -1.0144676 -1.1949732 -1.2215382
-0.17096514 -0.7912214 -0.07826446 0.36987752 0.6867014 0.93194073 0.9949358 -0.85139644
0.0639923 -0.65258586 -0.64092624 0.84847593 -0.85699874 -0.53997546 -1.4430532 0.7190638
-1.3989048 1.175843 -1.3392287 -0.12449717 1.4683789 1.3952073 -1.2420378 0.49681044
1.821708 0.45697287 0.81502426 0.8485142 1.4400678 0.19309124 0.60492676 -2.0398068
-2.104959 0.35304946 1.398116 1.7953376 -0.33336437 -0.3035452 -0.19622833 -1.6975753
0.47159493 -1.3043122 -2.4704614 -2.9091685 -2.5336955 0.52112424 1.0109776 2.4170794
0.20322347 -1.4314704 2.5853364 -0.75719357 2.8378341 -2.6355746 -0.24103929 0.62749994
-1.7809253 -2.2193604 1.7391353 -0.9377507 -2.5750039 1.1331463 3.2036273 2.1914792
-1.9615123 3.1291702 -1.2369524 3.423646 -2.206401 -1.2042773 -1.9050636 -0.9613089
1.2992604 -0.6086956 -2.0049107 1.5470283 1.0466491 1.4966079 -0.23759332 -2.5212307
1.5054319 2.3896525 -1.1444521 1.215552 -1.2877452 0.909761 0.84381247 2.2720115
-2.0436997 1.1453594 -2.3705995 2.1245117 1.1621325 1.1206688 -0.09228381 -1.0371068
3.059628 1.8770305 -3.6881032 0.09044569 2.3380628 -3.4336197 -3.6764414 -0.38967463
-3.5764756 -0.19002417 -0.18887556 -0.14196248 3.0023725 -1.4337956 1.6726229 2.4705079
-0.8001604 0.7180947 1.1391656 -2.671298 1.6384656 0.71877074 -0.036248825 2.617071
-1.7419288 2.0298553 -0.35750404 0.14866504 -0.46643233 0.06905313 -0.19931382 0.5577233
-0.59749645 0.07259696 0.095041454 -0.43722406 -0.12086274 -0.026228547 0.33612788 0.19484869
-0.8801559 -0.61544967 0.59568465 0.6797873 0.52010876 0.35420534 0.7303316 0.5988147
0.5842325 0.58315396 0.6320925 0.8087192 -0.010748842 -2.5803623 1.5366904 1.2138935
-0.12237583 -1.677322 -0.62613666 0.8236453 1.2431546 -1.5818315 -0.68069917 1.1396794
-2.6671982 1.8331983 0.81087327 -0.48173785 0.38124695 -0.58299965 0.12953183 -0.08436156
-0.17046897 1.8501638 0.009073842 1.3036283 -2.5751288 1.3388114 1.0763642 1.9275025
0.25324738 0.21831918 -1.9416784 2.2160397 -2.1209068 -1.9566534 1.9509472 -1.7391235
2.0757143 2.4835162 -2.814843 2.3185706 -2.45154 2.5785263 1.6319823 -2.0121856
1.9065775 1.1978904 2.5466268 1.5020528 -0.17854188 1.7097392 -0.52219164 -2.2039254
-1.5179405 -0.76203644 -2.3162742 -0.056433454 -0.24266768 0.65782964 -0.60019016 0.11121798
0.55512494 0.3190273 0.12737186 0.2612743 0.19838203 -0.23694462 0.16627342 -0.3651918

sequential_2/conv2d_11/Conv2D i1 [128, 3, 3, 128]
00000000: 22f9 0846 f0fd 2003 1115 d202 03ff 1ee6
00000010: 15de eef5 fa28 08f7 5303 090a 05e6 0f05
00000020: efed 162d 2bf2 031c 0003 eb01 0e06 edfa
00000030: fffd fcfd 57d6 052b 21f6 ef05 49d5 001c
00000040: f614 f323 07fe 0dfd e7fe 62fb 0a5f 01fe
00000050: 29f9 fb03 fbf9 001c fbf9 0802 f2fc fb0f
00000060: e70d 1ef8 0426 dedc 0e12 03ee eef2 383d
00000070: 0a28 180c fefa 00f9 1214 041d 0f01 ff23
00000080: 3f07 f22e 06fd fb21 3ff1 e9fe fa04 e9e8
00000090: 0209 fada e901 15e5 1b01 0124 2e19 0bf6
000000a0: ffe6 fddc f0fe 0421 1020 0111 0606 1df8
000000b0: 00f2 f9e9 ee45 03c7 1adf 350e 10f9 0701
000000c0: 0406 eefc effe fbfa dd00 5206 084a 05f6
000000d0: d3f1 18ff f900 fff5 eaf8 bc04 ef21 f211
000000e0: f006 0df2 ff0b f2de 08d3 02d0 e7e7 f9f0
000000f0: 09e1 f707 c2e0 08f2 0826 fb1d f3fd f701
34 -7 8 70 -16 -3 32 3
17 21 -46 2 3 -1 30 -26
21 -34 -18 -11 -6 40 8 -9
83 3 9 10 5 -26 15 5
-17 -19 22 45 43 -14 3 28
0 3 -21 1 14 6 -19 -6
-1 -3 -4 -3 87 -42 5 43
33 -10 -17 5 73 -43 0 28
-10 20 -13 35 7 -2 13 -3
-25 -2 98 -5 10 95 1 -2
41 -7 -5 3 -5 -7 0 28
-5 -7 8 2 -14 -4 -5 15
-25 13 30 -8 4 38 -34 -36
14 18 3 -18 -18 -14 56 61
10 40 24 12 -2 -6 0 -7
18 20 4 29 15 1 -1 35
63 7 -14 46 6 -3 -5 33
63 -15 -23 -2 -6 4 -23 -24
2 9 -6 -38 -23 1 21 -27
27 1 1 36 46 25 11 -10
-1 -26 -3 -36 -16 -2 4 33
16 32 1 17 6 6 29 -8
0 -14 -7 -23 -18 69 3 -57
26 -33 53 14 16 -7 7 1
4 6 -18 -4 -17 -2 -5 -6
-35 0 82 6 8 74 5 -10
-45 -15 24 -1 -7 0 -1 -11
-22 -8 -68 4 -17 33 -14 17
-16 6 13 -14 -1 11 -14 -34
8 -45 2 -48 -25 -25 -7 -16
9 -31 -9 7 -62 -32 8 -14
8 38 -5 29 -13 -3 -9 1

sequential_2/conv2d_10/Conv2D i1 [128, 3, 3, 64]
00000000: e9ef 2d20 0a14 f906 fafc 18e2 04ce fa30
00000010: f254 f714 ece3 fcf6 d9df 4af1 f7d0 1be5
00000020: 2f1d f5b8 0220 fbe8 2c13 d2e6 e7ee 1a03
00000030: 1c09 0f14 ed17 45e3 c701 ec20 0e07 e2d8
00000040: e6ef b61a 5965 9dfd f61e 292a 02e2 e958
00000050: 27a8 d213 81ea f708 b40a 3ff5 f8e0 e10a
00000060: e337 dad0 1716 f1ee 3bfd 2e11 e7e6 e40a
00000070: 0d00 1a11 08f0 78e3 f910 3721 28dd dc00
00000080: eef4 e72e 9254 af0d f6e3 53c6 00f9 fc6a
00000090: 2eca 071a 4b17 f913 f12b 4925 ebd1 1ed5
000000a0: ef19 3211 e32c f8ee 4607 31fc e8fb 691c
000000b0: 25f8 dace ea0e 78d3 3b03 f327 36c4 f7e7
000000c0: 37fc fb1c e879 f402 f701 03ff fde8 e5cf
000000d0: 1636 c608 9d11 c123 de32 0a1c e705 1422
000000e0: c627 b124 2d17 f0e9 2708 38fe e1ed 5106
000000f0: 11ed c312 0315 eced 0e14 1c17 06e6 e7fb
-23 -17 45 32 10 20 -7 6
-6 -4 24 -30 4 -50 -6 48
-14 84 -9 20 -20 -29 -4 -10
-39 -33 74 -15 -9 -48 27 -27
47 29 -11 -72 2 32 -5 -24
44 19 -46 -26 -25 -18 26 3
28 9 15 20 -19 23 69 -29
-57 1 -20 32 14 7 -30 -40
-26 -17 -74 26 89 101 -99 -3
-10 30 41 42 2 -30 -23 88
39 -88 -46 19 -127 -22 -9 8
-76 10 63 -11 -8 -32 -31 10
-29 55 -38 -48 23 22 -15 -18
59 -3 46 17 -25 -26 -28 10
13 0 26 17 8 -16 120 -29
-7 16 55 33 40 -35 -36 0
-18 -12 -25 46 -110 84 -81 13
-10 -29 83 -58 0 -7 -4 106
46 -54 7 26 75 23 -7 19
-15 43 73 37 -21 -47 30 -43
-17 25 50 17 -29 44 -8 -18
70 7 49 -4 -24 -5 105 28
37 -8 -38 -50 -22 14 120 -45
59 3 -13 39 54 -60 -9 -25
55 -4 -5 28 -24 121 -12 2
-9 1 3 -1 -3 -24 -27 -49
22 54 -58 8 -99 17 -63 35
-34 50 10 28 -25 5 20 34
-58 39 -79 36 45 23 -16 -23
39 8 56 -2 -31 -19 81 6
17 -19 -61 18 3 21 -20 -19
14 20 28 23 6 -26 -25 -5

sequential_2/conv2d_9/Conv2D i1 [64, 3, 3, 32]
00000000: f049 0b03 d8ec ead9 f5c2 62bc f60d d40e
00000010: 4bd9 b800 24cd ffd2 d5e2 0a00 3523 0cc7
00000020: f499 ab35 efcd c3ff c344 3318 27dc eb0a
00000030: 1d0a 9b34 03e5 03c5 b4f9 1dfb ce2a 0bfe
00000040: e5a7 bf10 c9d9 a920 dab6 6a27 1e1a 0112
00000050: e2ef 9bea f8f9 fdd9 2a25 f8ef da18 051a
00000060: feba adfe 02f3 a3c7 b90d 7759 5b32 e03b
00000070: e2c7 cde8 b30b 13b5 662e 0cc1 deed 2ad8
00000080: fe37 1d52 2ce9 9424 bff8 d320 bafb c847
00000090: 13f6 e3fe c8ca 4ae6 42f7 00b8 5ede 1727
000000a0: 009f e13f edfb ebe5 c7b0 347f 1fa0 cffb
000000b0: 1898 421f 3c0a 73d8 3f3e 27b2 20fc e242
000000c0: daed 9e23 b913 b8e7 05bc b2df eace fb3c
000000d0: 52be 310f 51e0 f3c6 0430 0422 370e fed3
000000e0: e6df 1a0b cfec b49e f75c 4d58 ca5b fb25
000000f0: 2123 e131 ccee f9c3 c514 1e05 5347 f602
-16 73 11 3 -40 -20 -22 -39
-11 -62 98 -68 -10 13 -44 14
75 -39 -72 0 36 -51 -1 -46
-43 -30 10 0 53 35 12 -57
-12 -103 -85 53 -17 -51 -61 -1
-61 68 51 24 39 -36 -21 10
29 10 -101 52 3 -27 3 -59
-76 -7 29 -5 -50 42 11 -2
-27 -89 -65 16 -55 -39 -87 32
-38 -74 106 39 30 26 1 18
-30 -17 -101 -22 -8 -7 -3 -39
42 37 -8 -17 -38 24 5 26
-2 -70 -83 -2 2 -13 -93 -57
-71 13 119 89 91 50 -32 59
-30 -57 -51 -24 -77 11 19 -75
102 46 12 -63 -34 -19 42 -40
-2 55 29 82 44 -23 -108 36
-65 -8 -45 32 -70 -5 -56 71
19 -10 -29 -2 -56 -54 74 -26
66 -9 0 -72 94 -34 23 39
0 -97 -31 63 -19 -5 -21 -27
-57 -80 52 127 31 -96 -49 -5
24 -104 66 31 60 10 115 -40
63 62 39 -78 32 -4 -30 66
-38 -19 -98 35 -71 19 -72 -25
5 -68 -78 -33 -22 -50 -5 60
82 -66 49 15 81 -32 -13 -58
4 48 4 34 55 14 -2 -45
-26 -33 26 11 -49 -20 -76 -98
-9 92 77 88 -54 91 -5 37
33 35 -31 49 -52 -18 -7 -61
-59 20 30 5 83 71 -10 2

sequential_2/dense_4/MatMul i1 [32, 1152] scale=0.0004933325 zero_point=0
00000000: 0804 0a11 00fe 0b02 0d07 0100 080e f805
00000010: f10c 0701 0b01 0901 1c04 040c 0c0d 1105
00000020: 0001 ec09 0b00 0af8 1501 0402 f804 000d
00000030: 010e ff05 0af9 01fe 0605 0106 0408 f906
00000040: 0406 080a 01fc 0504 0902 0913 fa01 0404
00000050: 0b07 07eb 01fc 01fe 10f9 fbfe f103 fd05
00000060: 0801 feff f7fd 02f6 09fa 0100 06f3 0102
00000070: fde8 030a f709 ff0d 0406 0802 08e8 0006
00000080: 0406 0c1a 07ff 0805 0507 f900 1614 e80e
00000090: e10a 0603 0600 0cfc 2c08 0916 0c02 220b
000000a0: 0004 e5e5 eff9 0dfc 0501 fcf8 fc01 f706
000000b0: 0416 f911 15fa 05eb 1d0d 010b 0e12 0801
000000c0: 08fd 0512 06f9 0c0a 0d02 0e07 f007 04ff
000000d0: 0b05 10fc f5fc 04ff 020a 07fc f802 0005
000000e0: 0d02 fc05 f7f5 f5f0 09fb 07fa 0bf4 0603
000000f0: fa05 0b06 f50f 011c 01eb f8f5 0de2 00f8
0.00394666 0.00197333 0.004933325 0.008386653 0.0 -0.000986665 0.0054266574 0.000986665
0.006413323 0.0034533276 0.0004933325 0.0 0.00394666 0.006906655 -0.00394666 0.0024666626
-0.0073999874 0.00591999 0.0034533276 0.0004933325 0.0054266574 0.0004933325 0.004439993 0.0004933325
0.01381331 0.00197333 0.00197333 0.00591999 0.00591999 0.006413323 0.008386653 0.0024666626
0.0 0.0004933325 -0.00986665 0.004439993 0.0054266574 0.0 0.004933325 -0.00394666
0.010359983 0.0004933325 0.00197333 0.000986665 -0.00394666 0.00197333 0.0 0.006413323
0.0004933325 0.006906655 -0.0004933325 0.0024666626 0.004933325 -0.0034533276 0.0004933325 -0.000986665
0.002959995 0.0024666626 0.0004933325 0.002959995 0.00197333 0.00394666 -0.0034533276 0.002959995
0.00197333 0.002959995 0.00394666 0.004933325 0.0004933325 -0.00197333 0.0024666626 0.00197333
0.004439993 0.000986665 0.004439993 0.0093733175 -0.002959995 0.0004933325 0.00197333 0.00197333
0.0054266574 0.0034533276 0.0034533276 -0.010359983 0.0004933325 -0.00197333 0.0004933325 -0.000986665
0.00789332 -0.0034533276 -0.0024666626 -0.000986665 -0.0073999874 0.0014799975 -0.0014799975 0.0024666626
0.00394666 0.0004933325 -0.000986665 -0.0004933325 -0.004439993 -0.0014799975 0.000986665 -0.004933325
0.004439993 -0.002959995 0.0004933325 0.0 0.002959995 -0.006413323 0.0004933325 0.000986665
-0.0014799975 -0.01183998 0.0014799975 0.004933325 -0.004439993 0.004439993 -0.0004933325 0.006413323
0.00197333 0.002959995 0.00394666 0.000986665 0.00394666 -0.01183998 0.0 0.002959995
0.00197333 0.002959995 0.00591999 0.012826646 0.0034533276 -0.0004933325 0.00394666 0.0024666626
0.0024666626 0.0034533276 -0.0034533276 0.0 0.010853315 0.00986665 -0.01183998 0.006906655
-0.015293308 0.004933325 0.002959995 0.0014799975 0.002959995 0.0 0.00591999 -0.00197333
0.02170663 0.00394666 0.004439993 0.010853315 0.00591999 0.000986665 0.016773306 0.0054266574
0.0 0.00197333 -0.013319978 -0.013319978 -0.008386653 -0.0034533276 0.006413323 -0.00197333
0.0024666626 0.0004933325 -0.00197333 -0.00394666 -0.00197333 0.0004933325 -0.004439993 0.002959995
0.00197333 0.010853315 -0.0034533276 0.008386653 0.010359983 -0.002959995 0.0024666626 -0.010359983
0.014306643 0.006413323 0.0004933325 0.0054266574 0.006906655 0.008879986 0.00394666 0.0004933325
0.00394666 -0.0014799975 0.0024666626 0.008879986 0.002959995 -0.0034533276 0.00591999 0.004933325
0.006413323 0.000986665 0.006906655 0.0034533276 -0.00789332 0.0034533276 0.00197333 -0.0004933325
0.0054266574 0.0024666626 0.00789332 -0.00197333 -0.0054266574 -0.00197333 0.00197333 -0.0004933325
0.000986665 0.004933325 0.0034533276 -0.00197333 -0.00394666 0.000986665 0.0 0.0024666626
0.006413323 0.000986665 -0.00197333 0.0024666626 -0.004439993 -0.0054266574 -0.0054266574 -0.00789332
0.004439993 -0.0024666626 0.0034533276 -0.002959995 0.0054266574 -0.00591999 0.002959995 0.0014799975
-0.002959995 0.0024666626 0.0054266574 0.002959995 -0.0054266574 0.0073999874 0.0004933325 0.01381331
0.0004933325 -0.010359983 -0.00394666 -0.0054266574 0.006413323 -0.014799975 0.0 -0.00394666
