cnn_quantized.tflite (tflite, 847136 bytes, 11 tensors)

sequential/batch_normalization/FusedBatchNormV3;sequential/conv2d/BiasAdd/ReadVariableOp;sequential/conv2d/BiasAdd f4 [32]
000000 3b f3 83 bf f4 38 e1 bf 49 d2 62 3f 60 19 ca 3e
       -1.0308603 -1.7595506 0.8860212 0.39472485
000010 72 fd c3 bf e8 3d 18 bd c4 a3 9a bf 94 ed ed bf
       -1.531172 -0.037168413 -1.2081227 -1.8588128
000020 4a 65 e2 bf 3e 3b d3 3f cf 41 14 bf 27 52 89 bf
       -1.7687161 1.6502454 -0.57912916 -1.0728196
000030 3b fc e2 3f 4b 55 c7 bf aa 7a 72 3e 68 75 a1 3f
       1.7733225 -1.5572904 0.23679605 1.2613955
000040 28 47 da 3f 7b c7 b8 3f 3c 67 a8 bf 4b a6 ae 3f
       1.7052965 1.4435877 -1.3156505 1.3644499
000050 4c 87 5e bf 9e 83 59 3f c4 a1 51 3c a1 e2 e2 3f
       -0.86925197 0.84966457 0.012794916 1.7725412
000060 6e e5 dc bf c9 f4 dd bf 12 84 cf 3f dc 2b c6 3f
       -1.7257516 -1.7340328 1.621218 1.5482135
000070 a2 86 cf 3f 80 cb 47 bf d4 bc c0 be 67 12 00 bf
       1.6212962 -0.7804489 -0.37644064 -0.5002808

sequential/dense/BiasAdd/ReadVariableOp f4 [512]
000000 9c 81 1a 38 9f 44 02 3b c3 58 3a bb 75 40 89 ba
       3.683717e-05 0.0019877327 -0.0028434254 -0.001047148
000010 d7 17 38 3b ea 49 92 3a fb 08 a4 38 8b 6f 98 3b
       0.0028090382 0.0011160944 7.821802e-05 0.004651969
000020 1f ed 71 b8 93 65 77 3a c9 a4 25 3b 34 a8 15 bb
       -5.7679714e-05 0.0009437438 0.0025275222 -0.0022835853
000030 7b 05 f0 3a 2f 17 3e bb e1 29 f3 39 1a 15 a5 ba
       0.001831218 -0.0029005518 0.00046379774 -0.001259479
000040 23 39 89 ba 5d 32 6a ba d0 a3 ce 3a ef 6b 64 bb
       -0.0010469299 -0.00089338963 0.0015765373 -0.0034854372
000050 18 fb 8b ba 0c 48 27 ba 81 8d 4d 3b a8 3c 7c b6
       -0.001067969 -0.000638128 0.003136486 -3.7586233e-06
000060 9b b5 b6 3a fd 9b bd 3a af 7f ac b9 ea 31 50 3a
       0.0013939621 0.0014466044 -0.00032901528 0.0007942008
000070 0c 30 64 ba df 0e f6 ba 8f 69 4e 3a c5 e7 d5 3a
       -0.00087046693 -0.0018772742 0.0007874006 0.0016319683
000080 18 d5 32 3b 11 dd 16 39 60 be dc 3a 76 81 7b ba
       0.0027287658 0.00014387468 0.0016841404 -0.00095941813
000090 03 37 63 3b 58 73 d7 b9 1a 51 ef b8 fd d4 15 b9
       0.003467024 -0.00041093933 -0.000114115144 -0.00014289092
0000a0 3b 29 fc b7 fb ac 2b ba 89 9b 30 bb 8c 9d 04 bb
       -3.005994e-05 -0.00065489084 -0.0026948175 -0.0020235507
0000b0 49 38 52 3a ab 88 12 ba 21 25 d3 3a 62 b5 fe 3a
       0.00080192514 -0.0005589823 0.0016109088 0.0019432718
0000c0 f1 c1 cb b9 20 5a 4f bb 9d 6d 30 ba c3 d1 92 b9
       -0.00038863675 -0.0031639412 -0.0006730201 -0.00028003575
0000d0 e4 e3 f0 ba d9 e0 a1 ba 98 d9 c9 ba 15 f1 0f ba
       -0.0018378464 -0.0012350335 -0.0015399931 -0.0005490941
0000e0 1c d8 16 bb bd e6 57 ba ec e5 12 bb 1e d2 67 39
       -0.0023016995 -0.0008235982 -0.0022414876 0.00022108151
0000f0 ab 11 bd 3a b8 fa 3b 3b f6 5f 3f ba 6e cc dd 3a
       0.0014424821 0.0028683376 -0.0007300371 0.0016921887
000100 d9 d9 18 3a ae 13 98 ba c3 ab b6 38 11 89 06 3a
       0.00058308017 -0.0011602545 8.7104294e-05 0.0005132119
000110 95 94 45 3b 28 2f 10 36 68 9c ad ba 05 71 ff ba
       0.0030148376 2.148512e-06 -0.0013245465 -0.0019488638
000120 9c d7 ab 39 27 7b d5 ba 73 40 83 b8 96 c2 fe 39
       0.00032776303 -0.0016287313 -6.2585714e-05 0.00048591633
000130 92 b2 8f bb 39 a2 69 ba 13 12 73 3b b1 8d 14 b8
       -0.004385301 -0.00089124177 0.003708963 -3.541791e-05
000140 db 28 3d bb 6d 34 74 b2 f5 f9 50 39 01 6a 27 b8
       -0.0028863463 -1.42145895e-08 0.00019929542 -3.9914627e-05
000150 fb 70 05 bb 67 d1 dd 3a 84 1c 04 bb 9f 6a c7 3a
       -0.002036153 0.0016923369 -0.0020158598 0.0015214271
000160 0d 96 8c b9 a3 95 6d bb af 3c cf ba 52 57 f7 3a
       -0.00026814677 -0.003625252 -0.0015810932 0.0018870628
000170 61 12 0c 3b fe 6c ef ba 7c 72 94 3a 36 ee a6 3b
       0.002137326 -0.0018266735 0.0011325623 0.005094315
000180 8e a1 18 3b 45 b7 48 bb 6c b3 e2 ba 6a 18 76 3a
       0.0023289653 -0.0030626815 -0.0017295904 0.0009387793
000190 e3 c4 18 ba a9 b4 02 ba 58 99 29 3a 1d ce 95 ba
       -0.0005827678 -0.0004986027 0.00064696884 -0.0011429224
0001a0 78 0d 9b 3a 82 d3 cd ba 17 6c 28 bb 7b 23 2b 3b
       0.0011829576 -0.0015703293 -0.0025699192 0.0026113677
0001b0 9b 5d f3 39 22 c5 4e 3b 94 0b 9a ba 61 aa c0 3a
       0.00046418313 0.0031550606 -0.0011752718 0.0014699214
0001c0 29 e8 88 b8 9b e5 d5 39 9e 34 5a 3b 47 03 a8 3a
       -6.5282286e-05 0.00040797595 0.0033295522 0.001281836
0001d0 c0 35 c0 3a 4c d2 37 34 92 ac c7 3a e2 29 f9 3a
       0.0014664456 1.7119709e-07 0.0015233925 0.0019009674
0001e0 c0 6b 0e bb 1a 58 03 3b a4 c9 aa ba 95 76 eb 3a
       -0.0021731704 0.0020041526 -0.0013030064 0.0017964417
0001f0 9c 36 dc 3b ab 54 40 3a da 24 01 b9 7a 3a ce 3a
       0.006720377 0.0007336835 -0.00012316127 0.001573398
000200 0f 11 62 3a 43 67 99 bb a1 62 c6 3a dc 5e 95 ba
       0.0008623758 -0.004681499 0.0015135595 -0.0011396068
000210 bb 63 dd ba a5 2e 55 3a 93 c9 a6 ba c5 b1 03 3a
       -0.0016890684 0.0008132256 -0.0012724869 0.0005023743
000220 fa c5 19 3b 7c f3 61 3a 86 dc 58 ba 48 11 9b 3a
       0.002346395 0.0008619351 -0.00082726066 0.0011830712
000230 db fc d5 3a 9b 04 af 3a bf bc f8 ba a1 12 8f 3a
       0.0016325967 0.0013352813 -0.0018977149 0.0010915586
000240 ce 81 08 ba c7 49 06 bb 22 23 9d 3a 5e 36 29 3b
       -0.00052073307 -0.0020490752 0.001198862 0.002581976
000250 c1 4f 80 3a b5 46 26 3b 9d b1 f7 38 95 1c 2b 3a
       0.0009789394 0.0025371735 0.00011810961 0.00065273914
000260 33 71 c1 3a 9a eb 89 36 5b 34 e4 3a 55 f8 3a 3b
       0.0014758467 4.110346e-06 0.0017410623 0.0028529365
000270 87 6e 25 3a 32 72 46 3a 81 e8 f4 3a 38 b6 89 39
       0.00063107203 0.0007570117 0.0018685014 0.0002626644
000280 6a 84 a2 3a 77 a3 c3 3b c0 5b da b9 b1 be f5 3a
       0.0012399082 0.0059704143 -0.0004164856 0.0018748847
000290 4d c0 0a 3b f0 de 50 3b df 6d 16 bb 94 5e f2 39
       0.002117175 0.0031871162 -0.0022953672 0.00046228303
0002a0 23 ba 9b bb df ea 07 ba 3b c2 b2 ba bd 1a e3 38
       -0.004752414 -0.000518484 -0.0013638207 0.00010829184
0002b0 03 8f 63 3b c6 6f c2 3a 91 6a 1f 3b 99 62 39 ae
       0.0034722693 0.0014834336 0.0024324993 -4.2151702e-11
0002c0 f9 48 19 ba 16 c2 02 bb 3c ff 2e 3b b1 5b 4c 3a
       -0.00058473606 -0.001995211 0.0026702425 0.00077956455
0002d0 ec 56 11 3b 6e 66 c2 3a 1e e5 3a bb 9d c2 c2 b9
       0.0022177054 0.0014831552 -0.0028517912 -0.00037147562
0002e0 15 ce 9e 39 73 42 05 3b 95 13 2c 3a 21 13 70 3a
       0.00030289651 0.0020333796 0.0006564197 0.0009158124
0002f0 39 91 75 ba ba 65 81 bb f8 75 74 3b b2 6c 36 b5
       -0.0009367648 -0.0039488943 0.003730176 -6.7958456e-07
000300 cf 91 be 3a 8c e8 d0 3a a8 a9 cf ba 29 84 fe 3a
       0.0014539304 0.0015938445 -0.0015843408 0.0019418049
000310 e6 57 3c bb 33 1d 45 ba 61 91 fc 38 2d 4d 4f 3b
       -0.0028738915 -0.00075193046 0.00012043375 0.0031631694
000320 9c de ff 3a 7e 53 a7 39 e4 78 96 3b 7c 87 5b 3a
       0.0019521299 0.0003191493 0.004592048 0.0008374376
000330 61 2b 2d 3a 70 3f c1 3a 10 5b 19 3a 97 55 c8 b9
       0.000660589 0.0014743637 0.0005850056 -0.00038210742
000340 39 aa 22 ba 91 f1 f0 ba b8 03 94 3b e4 ea 0b 3a
       -0.0006205175 -0.0018382539 0.004517045 0.00053374306
000350 44 03 a3 ba 65 a1 23 3b 30 53 88 ba 0e e6 67 3b
       -0.0012436886 0.0024968025 -0.0010400768 0.0035384926
000360 76 4e 7a bb 8c 1f be 3a 3d 8b 0b bb d2 af 7b 3b
       -0.003819374 0.0014505251 -0.002129271 0.0038404358
000370 ad 27 d4 3a 31 de 2c 3b 1e 35 98 3a 9d c6 92 ba
       0.0016186141 0.0026377554 0.001161251 -0.0011198107
000380 e0 ef d8 39 c2 90 17 3b d8 07 a9 ba 01 94 88 3a
       0.0004137745 0.0023127054 -0.0012896014 0.0010420085
000390 18 01 ee 3a 15 89 41 3b 2a 4a 62 3a 6e 11 98 3b
       0.0018158285 0.002953117 0.0008632267 0.0046407497
0003a0 2b 6d dd b9 dc 37 ca ba 91 7c 83 bb 2c 63 9e ba
       -0.0004223374 -0.0015428024 -0.004012652 -0.0012083999
0003b0 e4 e7 b4 ba cf 5f b3 3a 74 dd ea b9 d3 2d 4d bb
       -0.0013802019 0.0013685169 -0.00044796953 -0.003130783
0003c0 96 5f a4 ba a4 08 58 3b d2 c2 d3 39 28 7a 33 bb
       -0.0012540694 0.0032964135 0.0004039021 -0.0027386043
0003d0 d5 a1 1d bb 48 c4 6e 3b c7 51 af b8 33 eb 97 b9
       -0.0024052758 0.003643291 -8.3598825e-05 -0.000289762
0003e0 34 7d 1f 3a 9e 5f b1 b8 00 00 00 00 8a 40 49 bb
       0.00060840254 -8.457828e-05 0.0 -0.0030708634
0003f0 89 26 cd ba 56 18 11 b9 1b 4f 75 39 2c a5 a1 3b
       -0.0015651743 -0.00013837343 0.0002339449 0.00493302

sequential/conv2d_3/BiasAdd/ReadVariableOp f4 [128]
000000 c2 39 b0 bb 2e 98 9e 3a 0c 17 65 bb a2 e3 5d 3b
       -0.005377979 0.0012099796 -0.0034956364 0.0033857604
000010 f9 dc 79 bb 3c dd 58 3b 2c 11 df 3a 34 9e b4 bb
       -0.0038126095 0.003309085 0.0017018667 -0.0055120233
000020 30 ab 8e bb f8 0e f4 b9 23 e2 31 bb 00 86 a8 bb
       -0.0043539032 -0.0004655046 -0.0027142845 -0.005142927
000030 d1 2b 72 ba 9f d6 8d 3a 41 3c 9e 3a 58 21 a5 b9
       -0.00092380965 0.0010821408 0.00120724 -0.00031496095
000040 76 47 ed ba cc f9 96 b9 ae e6 69 ba 74 0f 27 bb
       -0.0018102962 -0.00028796343 -0.00089226186 -0.0025491389
000050 c7 66 c1 38 8d db ba 3b 9d 79 04 bb 09 71 3b bb
       9.222101e-05 0.005702442 -0.0020214089 -0.002860131
000060 b6 35 2b bb 6f 4e 1f bb bc a8 0a 3b a5 69 03 3a
       -0.0026124544 -0.0024308225 0.0021157702 0.00050129957
000070 29 2d a2 39 4b 0c ab 3a 3e 5e ea ba 66 6f 8c 39
       0.00030932695 0.0013049928 -0.001788087 0.0002678588
000080 a7 6f b3 b9 69 91 ad bb 7d 8f 65 ba a1 54 33 ba
       -0.00034224728 -0.0052968753 -0.0008757038 -0.0006840919
000090 e2 be 40 bb 38 5d e2 bb 08 36 65 3b 3c 8c 63 3b
       -0.002941065 -0.006908085 0.0034974832 0.0034721037
0000a0 e0 48 3c bb 26 28 28 ba bd 8f 09 3a 09 77 a5 bb
       -0.002872996 -0.0006414674 0.0005247554 -0.0050495905
0000b0 87 7f ef ba b8 58 90 ba 71 21 6e bb e6 8d b2 3b
       -0.0018272259 -0.0011012768 -0.003633585 0.0054490445
0000c0 4f 4e 6f bb 45 d9 07 bb ac 12 0e 3b fc fe 5f ba
       -0.0036515181 -0.0020728868 0.002167861 -0.00085447705
0000d0 6d b8 f3 b9 23 84 6c bb b0 1a 61 b7 ac fe 82 3a
       -0.0004648598 -0.0036089502 -1.3417259e-05 0.0009994111
0000e0 98 2f 63 bb ab 38 e5 39 95 97 5e bb e8 a6 b9 ba
       -0.003466582 0.00043720505 -0.0033964862 -0.0014164122
0000f0 e2 80 47 bb 9b 8d 94 bb b2 40 40 bb b7 f4 db b9
       -0.003044181 -0.0045334822 -0.0029335436 -0.00041953262
000100 9b 5d 4e bb 67 fe 06 bc 44 28 38 3a 73 42 ab b9
       -0.0031488899 -0.008239365 0.0007025043 -0.0003266517
000110 e7 ec 96 38 41 52 87 3a 2f 21 00 bb d3 4f b0 ba
       7.196684e-05 0.0010324196 -0.001955103 -0.0013451524
000120 8d e5 90 bb 44 17 c8 ba 74 dd 98 b9 ae ec 94 38
       -0.004421896 -0.0015265723 -0.00029156695 7.101275e-05
000130 a2 41 fb bb 8b 42 33 3b 48 07 e5 ba d1 70 73 3a
       -0.007667736 0.0027352895 -0.0017473483 0.00092865253
000140 33 e6 96 b9 03 00 73 bb 74 fe d1 39 71 39 57 3b
       -0.0002878174 -0.0037078864 0.0004005317 0.0032840634
000150 ad 85 e5 b9 10 f2 7c 3a fb d2 94 39 47 cc 8d b8
       -0.0004377788 0.0009649107 0.00028385952 -6.7614536e-05
000160 4d 31 cf bb 1a a3 ac 3b d3 ea 18 bb 06 34 53 3a
       -0.006323016 0.0052684667 -0.0023333326 0.00080567633
000170 6f 25 3f ba b2 53 02 3a f2 57 32 ba c1 8c 64 bb
       -0.000729165 0.0004971578 -0.0006803266 -0.0034873935
000180 df ce 81 ba 7e b8 01 3b 11 9a 3e bb 4e 47 81 bb
       -0.0009903571 0.0019793804 -0.002908353 -0.0039452678
000190 49 5a bb b9 af d4 e0 39 7b 69 9e 3a 37 c3 24 3b
       -0.00035734687 0.0004288307 0.0012085879 0.0025140771
0001a0 b1 01 4f 3a 0b a6 f2 b9 d3 ad 88 bb 8f 25 b4 3a
       0.00078966754 -0.0004628155 -0.004171112 0.0013744103
0001b0 64 97 7b 3a 2b 8f 55 3b 8d 14 b3 ba 91 cb 7d bb
       0.0009597449 0.0032586555 -0.0013662741 -0.0038726071
0001c0 f3 b5 f1 bb 8c ba c9 bb 9c 1d a6 bb 8f 51 70 ba
       -0.0073764264 -0.0061562713 -0.0050694477 -0.00091674266
0001d0 94 f0 20 bb 36 09 ea ba 0a 0c 2e 3a cd d8 0a ba
       -0.0024557458 -0.0017855528 0.0006639367 -0.0005296588
0001e0 cb 02 b8 bb 93 8f 88 ba 4b 72 bc b8 52 46 e2 b9
       -0.0056155673 -0.0010418765 -8.985827e-05 -0.00043158472
0001f0 aa 37 24 bb d6 a6 c1 38 c5 3b 0d bb eb 31 4b ba
       -0.0025057592 9.234033e-05 -0.0021550518 -0.0007751274

sequential/conv2d_2/BiasAdd/ReadVariableOp f4 [128]
000000 0c f0 a0 b8 68 dd c8 3b 54 70 8b bb e0 3c f9 39
       -7.674107e-05 0.0061299093 -0.004255334 0.00047538336
000010 ff 08 18 39 47 cf 9f bb 5c 85 8e bb cf 45 44 bb
       0.00014499201 -0.0048770043 -0.004349394 -0.0029948836
000020 2c f0 c7 bb 8a 3b 07 bc 17 a1 12 3b 51 07 be b9
       -0.0061016288 -0.008253941 0.002237385 -0.00036245075
000030 ed da 1e 3a fc 3d 19 3b 3f c1 8e 3b 21 b4 fd 3a
       0.0006059844 0.0023382893 0.004356533 0.0019356051
000040 d7 e6 90 3a 1f ca be ba e8 3c 11 3b 1c 89 46 bb
       0.0011055124 -0.0014556086 0.0022161547 -0.0030294126
000050 65 cc a3 b9 ce 3c ac bb 7f 4a 43 3b ad cf ba bb
       -0.00031242069 -0.005256272 0.0029799042 -0.0057010264
000060 21 a3 50 3a 7e 10 e3 3b 51 7e b0 bb 8d fd cb b9
       0.00079588784 0.0069294563 -0.005386152 -0.00038908087
000070 b3 5c 2f 3b f4 5d 49 bb 19 fd a1 ba 57 d9 cd bb
       0.0026758134 -0.0030726166 -0.0012358754 -0.0062820124
000080 07 07 e1 ba 74 44 2b bb 64 77 1b bb e9 27 89 ba
       -0.0017168232 -0.002613333 -0.0023722285 -0.0010464165
000090 57 22 1a 3b 49 01 c3 3b 88 6b 07 3c 7f 46 6f 3b
       0.0023519003 0.005951081 0.008265384 0.0036510525
0000a0 23 97 1e 3b 15 19 a4 bb 04 3f 89 3a 23 5f a2 3b
       0.0024198971 -0.005007873 0.0010471051 0.004955189
0000b0 06 4f 37 bb 55 80 0c 3c b6 eb 5b 39 70 83 46 3b
       -0.0027970686 0.008575519 0.00020973277 0.0030290745
0000c0 a7 2b b1 3b 09 c7 a1 3b 24 26 a9 bb fe d9 77 38
       0.005406815 0.004937057 -0.0051620174 5.909241e-05
0000d0 8a 11 80 bb 5b 1d b5 3a d3 c1 42 3b 86 98 1a bc
       -0.003908341 0.0013817953 0.002971758 -0.0094357785
0000e0 ed 88 35 bb 5a 87 40 bb cb 4f 79 3b 30 cb 60 3a
       -0.0027700022 -0.002937755 0.0038041945 0.0008575199
0000f0 af 36 19 ba 78 41 6f bb b3 39 c7 3b af 4b 42 3b
       -0.00058446353 -0.0036507528 0.0060798763 0.0029647162
000100 e7 95 72 bb a7 61 d1 3b 4a 96 05 bb 62 d1 8e bb
       -0.0037015618 0.006389815 -0.0020383769 -0.0043584565
000110 16 2d 14 bb 0d fd 91 ba a0 f5 a7 3a 3d 09 3b bb
       -0.002260988 -0.0011138037 0.0012814291 -0.0028539442
000120 42 0d e9 39 de 8e 96 bb 83 86 87 3b 6a d0 20 bb
       0.000444511 -0.004594668 0.004135908 -0.0024538287
000130 11 87 b0 3a 9a ec ad 3b 9b 5d ea 3b cf 41 d5 3b
       0.0013467987 0.005307746 0.007152272 0.006508089
000140 09 bf e1 3a a3 3b b4 ba de a7 64 3a 20 b3 5b bb
       0.0017223071 -0.0013750683 0.0008722524 -0.0033523515
000150 7f 4a 2c bb a4 56 fa ba da b5 37 37 e7 b3 47 b9
       -0.002628952 -0.0019099307 1.0949991e-05 -0.00019045138
000160 14 86 b4 bb 5f 83 4d 3a 8f c7 66 3a e4 4d 42 ba
       -0.0055091474 0.0007839705 0.000880354 -0.00074121193
000170 9e d2 ad ba 0b da c2 ba e5 b5 b5 3b 4f d7 e0 b9
       -0.0013261621 -0.0014866007 0.005545365 -0.00042885027
000180 e7 f2 2e bb f7 ca ba b9 79 c2 c5 3b 8b 45 c4 bb
       -0.0026695074 -0.00035627905 0.006035146 -0.0059897355
000190 96 a3 5a ba ad 46 66 ba 42 80 52 3a a5 da 86 bb
       -0.0008340416 -0.0008784335 0.0008029976 -0.00411542
0001a0 f7 94 43 bb 35 58 51 bb 38 88 51 bb 8f d6 05 3b
       -0.0029843429 -0.0031943445 -0.0031972062 0.0020422076
0001b0 3b 87 25 3b 9f 30 eb 3a 26 cd 83 3b 9b 3a 21 3b
       0.0025257606 0.0017943567 0.0040222583 0.0024601582
0001c0 bf c6 8f bb 7a 9e dd ba b8 00 60 b9 07 86 09 3b
       -0.004387706 -0.0016908192 -0.00021362572 0.0020984428
0001d0 50 e8 78 bb 20 f2 c3 bb 6e e0 a2 39 62 a9 8f 3b
       -0.0037980266 -0.0059797913 0.0003106626 0.0043842057
0001e0 38 4a dc 3a 79 08 5b bb 2a 3c 09 3b 07 af 11 bb
       0.0016806787 -0.0033421798 0.0020940402 -0.0022229569
0001f0 98 75 c5 3a bc 94 d3 ba 15 b6 1c 3b 30 11 f3 3a
       0.0015064953 -0.0016142349 0.002391224 0.0018544551

sequential/conv2d_1/BiasAdd/ReadVariableOp f4 [64]
000000 87 88 a6 3a 6a c3 14 3a 7c 66 8b bb 69 f0 01 3c
       0.0012705483 0.0005674871 -0.0042541604 0.007930853
000010 98 3c 03 3c 35 ae 93 3b 91 05 bf b9 24 86 cc 3b
       0.008010052 0.004506851 -0.00036434506 0.0062415767
000020 8e b4 50 3c 90 89 d5 3b fa 81 ff 3b ce 6f f6 ba
       0.01273836 0.006516643 0.007797477 -0.0018801631
000030 1b d9 a5 bb 80 ce a7 3a a7 65 6b 3a 98 64 ff 3a
       -0.0050612814 0.0012802631 0.0008979686 0.0019484935
000040 aa 8d fd b9 a4 3a 13 bb 1a bb 85 bb c9 8e fd 39
       -0.00048361468 -0.0022465372 -0.004081142 0.00048362304
000050 e6 44 bb bb 77 de 4b 3b 04 18 76 39 66 8e a0 3b
       -0.0057150004 0.0031107941 0.00023469335 0.0048997877
000060 61 e2 d6 bb 06 6b 08 bb 86 3b 30 3c b7 54 7e 3b
       -0.006557748 -0.0020815744 0.010756379 0.0038807818
000070 81 62 66 3b 86 00 87 3b 12 93 24 3b f4 60 7f 3b
       0.0035153928 0.0041199354 0.0025112075 0.00389677
000080 72 e4 b2 3b ff be f9 3b 3f 79 16 3a 56 ed 6a ba
       0.0054593617 0.0076216455 0.0005740113 -0.00089617574
000090 47 59 77 bb 8a 56 b4 3b 83 87 b6 ba 89 56 d3 bb
       -0.0037742422 0.0055034803 -0.0013925884 -0.006449525
0000a0 2a ec 78 bb f8 84 c3 3b c3 d6 30 3b ec 9f 25 b9
       -0.0037982562 0.005966779 0.0026983477 -0.00015795202
0000b0 70 ec 45 ba a9 d7 d3 bb 8e 42 97 bb 30 7f c5 b8
       -0.00075501855 -0.0064649177 -0.0046160882 -9.4173825e-05
0000c0 24 6c b3 3a 1c 3b 47 3b ab da ad bb cd 00 5d bb
       0.0013688845 0.0030400222 -0.0053056083 -0.00337224
0000d0 2e 92 37 3b f7 b2 e6 bb 53 86 19 3c 47 a8 df b9
       0.0028010714 -0.0070403772 0.009370404 -0.0004265925
0000e0 7e e8 cc 3a 26 ba e2 3b 83 e0 be 3b 54 a9 8d bb
       0.0015633253 0.0069191633 0.0058251037 -0.004323164
0000f0 e2 9e aa 3b c7 2e d5 3a 76 d8 f8 bb b3 c6 7a 3b
       0.0052069286 0.0016264551 -0.0075941635 0.0038265407

sequential/dense_1/MatMul f4 [1, 512]
000000 1b d9 3b 3d 8a 21 43 3d bc 52 44 bd 3b a5 d9 3c
       0.045861345 0.047639407 -0.047930464 0.026568046
000010 0b 23 5c 3d 56 1b d9 3d 1a 14 a3 3d 74 bb 56 bd
       0.053744357 0.10600917 0.079628184 -0.052424863
000020 73 ae b6 bc 8c 1a 7f 3d 97 c7 95 3d 57 73 22 3d
       -0.02229998 0.062281176 0.07313459 0.039660778
000030 cb 26 62 bc e0 be c9 3d d9 f9 9a 3d d7 a3 c3 bd
       -0.013803194 0.0985086 0.07567186 -0.09552734
000040 dc bc 79 3c a1 8b ad 3d 41 c0 8e bd 3d bc 68 bd
       0.0152427815 0.08473898 -0.06970263 -0.056820143
000050 2b 69 b5 bd 1d 78 93 3d 6e dc c1 3c 50 30 bf b9
       -0.0885795 0.07200644 0.02366468 -0.00036466355
000060 4c df 2b 3d fb 8a 59 3d a7 52 c7 bd 11 1e a4 3c
       0.041961 0.053111058 -0.097325616 0.020033868
000070 42 de 1d bc b9 22 6c 3d 80 92 84 bb e1 07 7e 3d
       -0.00963551 0.0576503 -0.0040457845 0.062019233
000080 30 9b 02 3d 47 dc 92 3d 5f 28 a5 bc b0 ce 4f 3d
       0.03188628 0.07170921 -0.020160852 0.050734222
000090 90 f8 91 bd 61 05 85 3d f8 3a 51 bc 27 e8 19 3b
       -0.07127488 0.064951666 -0.012770407 0.002348432
0000a0 7f 5c 96 bb ad 82 5b 3c c7 61 45 bd b8 6d 6d 3c
       -0.004588663 0.013397855 -0.04818895 0.014491491
0000b0 e4 33 bb bd 37 04 c9 bd 42 31 b8 3d e7 20 c6 bd
       -0.09140757 -0.09815257 0.0899377 -0.096742444
0000c0 8f c3 4f 3d 9f 0e a8 bc c5 7b 63 3d 61 88 c9 3c
       0.05072361 -0.020514784 0.055537958 0.024601163
0000d0 16 8a 2d bd 57 47 9a bd be 72 b3 3d 21 fa ab bd
       -0.042368017 -0.07533138 0.0876212 -0.08397318
0000e0 4f 2f b7 bd 47 40 c2 bc d2 a9 9a bd 60 ba 84 3d
       -0.0894457 -0.02371229 -0.07551922 0.06480861
0000f0 bd 3c d8 bd 2a e5 9d bd 0a ea 67 3c 7b 60 b7 bd
       -0.1055846 -0.07709725 0.01415492 -0.08953949
000100 62 c1 9b 3d 6f a6 ab bd 9a 4c a3 bd f8 db 51 bb
       0.07605244 -0.08381354 -0.07973595 -0.003202198
000110 fc 3b df bd b6 40 33 ba 4f da bb bd 3a 61 97 bd
       -0.10900113 -0.0006837951 -0.091724984 -0.07391591
000120 1f 1e d6 bd db dd 5d bd a7 0f 8c 3d 69 6f a2 bd
       -0.10454964 -0.054166656 0.06838923 -0.07931406
000130 fc 6c 8b bd d9 d7 d1 3d 82 38 1a 3d 95 6c db 3a
       -0.068078965 0.10246248 0.037651546 0.0016740734
000140 ef 8f 50 bd 8d 9e 42 bd bb d6 b6 bd 51 8a d6 3d
       -0.050918516 -0.047514487 -0.08927675 0.104756005
000150 93 60 90 bd a3 1e 95 bd e6 5d e2 bc 88 7b e1 bd
       -0.0704967 -0.07281234 -0.027632665 -0.1100989
000160 52 24 77 3d cc 9a bd bd 8b 81 86 bd e2 21 b5 3c
       0.060337372 -0.09258041 -0.06567677 0.022110883
000170 36 79 dc 3d 44 f5 59 3d 32 22 aa 3d 75 c5 c1 bd
       0.10765307 0.05321242 0.083073035 -0.0946149
000180 77 33 2f bd 09 b3 bf bc 27 a7 44 bd 1a 33 92 3d
       -0.04277369 -0.0234008 -0.04801097 0.07138653
000190 41 54 a2 bd 58 84 96 3d f0 e1 50 3c ea be 5f 3d
       -0.079262264 0.07349461 0.01274918 0.05462543
0001a0 14 3f 8f 3d 9c a7 1c bd ae ca b0 bc c5 c8 a7 3d
       0.06994453 -0.038245782 -0.02158102 0.081925906
0001b0 35 8e 16 3c 54 94 85 bd b5 4c c7 3d 05 24 43 3d
       0.009189178 -0.06522432 0.097314276 0.047641773
0001c0 69 42 c1 3d 37 99 b1 bd cb 69 cc 3d 91 fe 3d 3d
       0.09436495 -0.086718015 0.09981116 0.04638535
0001d0 48 73 e4 3d 1f 45 4c bc ae 18 51 3d 64 05 99 3d
       0.11154801 -0.012467652 0.051048927 0.07471731
0001e0 13 48 ba bd 30 85 59 3d 0f fe 4b bd 84 73 0e bd
       -0.09095778 0.053105533 -0.049802836 -0.034778133
0001f0 6d 31 de bd fd b1 49 3b 1c 4a f8 ba ee ba e7 3c
       -0.10849271 0.0030776255 -0.0018942985 0.028287377
000200 2e 1b ce bc 01 af 58 bd 5c d1 61 bd c0 8c 1e 3d
       -0.025159445 -0.05290127 -0.0551313 0.03870845
000210 12 da 5d bc 6c 37 b6 bd d3 ee bd bd 45 e5 e6 3d
       -0.013540762 -0.0889729 -0.09274068 0.112741984
000220 16 22 9d 3d 55 33 d8 bc 58 6e a2 bd c2 f0 dc 3c
       0.07672517 -0.026391665 -0.07931203 0.026970271
000230 61 7c 46 3d ce 2c 89 3d ff 1c d3 3d 96 39 7d 3d
       0.04845846 0.06697999 0.10308265 0.061822496
000240 8b e5 80 3d df 78 c0 bd 00 87 da bd e9 e6 c9 bd
       0.06293782 -0.09398054 -0.106702805 -0.09858496
000250 89 ba 83 3d 0c 96 60 bd b5 f6 cd 3c 7d 5c d6 3d
       0.06432063 -0.054830596 0.025142053 0.104668595
000260 d3 a6 a2 3d 27 f0 58 bd 6a a0 a8 3d 79 76 c9 3d
       0.079419754 -0.052963402 0.082337216 0.0983705
000270 5e 6c 93 bd 3e 6b a6 3d 28 77 d1 bc af 86 ac bc
       -0.07198404 0.081259236 -0.025569513 -0.021060316
000280 a3 79 d1 bc 33 3a cb bd 7f 75 be 3c a0 05 70 3d
       -0.025570696 -0.0992321 0.023249386 0.058599114
000290 f5 fc 63 bd 8f 3f a7 bd 29 c7 89 3d 43 10 cd bb
       -0.05566116 -0.0816642 0.0672744 -0.006258042
0002a0 3d c5 3a bd 0e fb d7 3c 86 5b cd 3d a7 e1 fd 3d
       -0.045598257 0.02636483 0.10027222 0.123965554
0002b0 59 c2 91 3d 85 fd 50 3d e2 a9 f7 3c 77 08 61 3b
       0.07117147 0.051023025 0.030232374 0.003433732
0002c0 a9 54 c8 bd 4b 45 07 bd ab 2c 69 bd 2e ea 88 3d
       -0.09781773 -0.033025067 -0.056927364 0.06685291
0002d0 b3 94 58 3d af 5f ca bd 31 70 6a 3d 48 c8 e2 3d
       0.052876186 -0.098815314 0.0572359 0.11073357
0002e0 fa 28 17 3d 66 fd c4 3d 4d 2f 0c 3d 25 0b 76 bd
       0.036904313 0.096186444 0.034224797 -0.060069222
0002f0 fb 25 dc 3d 75 69 f7 bc 9b ec de 3c 25 5f bd b9
       0.10749432 -0.030201653 0.027212432 -0.00036119777
000300 c6 bc 54 3d c2 5a c5 3d 2a 7f 86 3d bd ad 1a 3d
       0.05193784 0.09636451 0.06567223 0.037763346
000310 fa b5 63 bd 22 0b bb 3c a4 59 62 bc ee 6e a6 3d
       -0.05559347 0.022832457 -0.013815317 0.08126627
000320 14 0b da 3d a4 38 cf bd d1 b0 9f bd 21 e2 11 3d
       0.10646644 -0.10118225 -0.07797397 0.035616044
000330 d5 53 3b bd ae 7d b0 3c a7 40 40 3d 12 d9 4f 3d
       -0.045734245 0.021544304 0.046936657 0.050744124
000340 a3 57 53 3d ad 42 a1 3d 43 dd 48 3d 59 6d ad bd
       0.05159725 0.078740455 0.049039137 -0.08468122
000350 a9 97 6d bc 41 7f 2e 3c c1 a0 8e bd cf 7e a3 3d
       -0.014501491 0.010650457 -0.06964255 0.07983171
000360 a1 80 cc bd 02 bb 8b bd 32 a9 0d bd 39 17 8d 3d
       -0.099854715 -0.06822778 -0.034585185 0.06889195
000370 50 40 74 3d 42 d7 cf bd 8c 60 14 bd a4 a9 15 bd
       0.059631646 -0.10148479 -0.036224887 -0.036538735
000380 f7 d6 6e bc c5 45 8b 3d 90 13 89 bd f3 0d 75 3d
       -0.014577619 0.06800417 -0.066931844 0.059827756
000390 01 3a 97 3d b2 82 ea 3d db b5 a1 3d 2c e9 03 3e
       0.0738411 0.114507094 0.07896014 0.12881917
0003a0 6a 86 ed 3c fc 87 df 3d 9d 95 1c bd 7d 5b 2a bd
       0.028994758 0.10914609 -0.03822862 -0.041591156
0003b0 65 e6 4b bd ba fb ee bd 34 5c b3 3d 2f cc eb 3d
       -0.04978027 -0.11669107 0.08757821 0.11513554
0003c0 b2 54 28 bc b5 33 a2 bd 94 a9 7d 3d 3c 18 8d bd
       -0.010274099 -0.079200186 0.0619293 -0.06889388
0003d0 3d 55 c8 bd 09 47 81 bd ca 0f 02 3c da 5f 14 bc
       -0.09781883 -0.06312377 0.007938335 -0.009056056
0003e0 81 d6 c5 bc b7 ec 0a bd 92 fa 36 bd a8 f8 7f bd
       -0.024150135 -0.033917155 -0.044672556 -0.062492996
0003f0 49 a2 e1 3d 52 db d0 bd 57 5d 49 bd 5a 88 5d 3d
       0.110172816 -0.10198082 -0.04916128 0.054085113

sequential/conv2d/Conv2D f4 [32, 3, 3, 3]
000000 0e bf bd 3e f4 21 d4 bf 0c 60 d2 3f ba 57 90 be
       0.37059826 -1.6572862 1.6435561 -0.2819193
000010 fd 47 18 c0 58 5b 97 3c 60 39 da 3f e3 50 01 c0
       -2.3793938 0.018476173 1.704876 -2.020562
000020 30 c3 a4 3e d2 b8 76 bf 6f 48 29 3f 00 da 12 c0
       0.32180166 -0.96375763 0.6612615 -2.2945557
000030 f8 d1 ed 3f de 63 33 c0 4a 73 d0 3f 56 f9 b2 bd
       1.8579702 -2.8029704 1.6285183 -0.08738963
000040 93 de 48 bf b6 83 f9 3f 3c 76 be 3f 00 d2 90 bf
       -0.7846462 1.949332 1.4879832 -1.1314087
000050 c7 06 17 40 89 85 a1 3f a0 d7 ec 3f 75 05 d0 3f
       2.3597887 1.2618877 1.8503304 1.6251665
000060 03 b3 bf 3f 97 b1 22 bf 07 af 4c c0 37 87 b5 be
       1.4976505 -0.6355223 -3.1981828 -0.35454723
000070 79 83 92 3f be c2 bd 3e 58 26 4f 3f cd d4 34 3b
       1.1446372 0.3706264 0.8091788 0.002759266
000080 e5 29 a6 3e 88 6e ac bd d8 4b 94 3f e1 52 09 3f
       0.32453838 -0.0841952 1.1585646 0.5364209
000090 f9 3b e9 3e 82 c2 0a bf 03 30 3b 3f 8d c5 a6 bf
       0.45553568 -0.54203045 0.73120135 -1.3029038
0000a0 1a 51 e6 be bc e4 9e 3f c5 02 c6 3d 27 94 c8 3e
       -0.4498375 1.2413554 0.09668497 0.3917553
0000b0 de f3 45 3f e9 d0 48 bf d8 99 5f 3f 57 ce 4a 3f
       0.77325237 -0.7844377 0.8734412 0.792211
0000c0 06 2c 19 3f 87 d8 42 bf 67 bf 03 bf 50 b1 b1 be
       0.598328 -0.76111645 -0.5146393 -0.3470559
0000d0 3d 47 a7 bf 9a 01 c5 be 0a 45 95 bf 20 81 01 bf
       -1.3068615 -0.38477784 -1.1661694 -0.50587654
0000e0 09 3f c3 bf 5c 22 ed bf c7 ff 73 be 4f 89 1a 3e
       -1.5253612 -1.8526111 -0.2382804 0.15091442
0000f0 c2 07 e3 3d 96 1e b6 bf 6a 73 d4 be 37 3c b5 3e
       0.11085464 -1.4228084 -0.41494304 0.35397503
000100 e4 c1 e3 3e 0d 41 d2 3f a6 c2 a9 3f bf 9d 06 40
       0.44483864 1.6426102 1.3262527 2.103378
000110 46 44 09 3f 57 fa 09 3f 3c a8 9d 3f 1a 48 83 3f
       0.536198 0.53897613 1.2316966 1.0256379
000120 d2 48 b1 bd a0 5b e9 bf 7d e5 e0 3f f2 cc d1 bf
       -0.086564675 -1.8231087 1.7570034 -1.6390669
000130 12 c1 5e 3f d4 b5 fe bf ae a9 94 bf 47 4e c3 bf
       0.8701335 -1.989924 -1.1614282 -1.5258263
000140 e8 39 01 3f d9 88 c1 bf 94 b5 8a bf c5 c0 14 bf
       0.5047898 -1.5119888 -1.0836663 -0.5810664
000150 e2 37 11 40 5b 51 92 bd 78 c2 e1 bf e7 a0 21 bf
       2.2690358 -0.071444236 -1.7637472 -0.6313614
000160 1f 33 62 bf 5c 35 e8 bf f7 ac 4a 3c 03 29 26 3f
       -0.88359255 -1.8141284 0.01237034 0.6490633
000170 3b 1b 11 c0 eb d8 10 40 d7 a3 fa 3f 1c 89 bd bf
       -2.267287 2.2632396 1.958125 -1.4807467
000180 61 18 01 40 26 f6 d1 3e 36 05 7b bf 41 b9 90 3f
       2.017113 0.4100811 -0.98054826 1.1306535
000190 54 09 55 bf 46 bf 5d 3f a7 ff b6 3f 82 d3 9e bf
       -0.8321736 0.86619985 1.4296769 -1.2408297
0001a0 c0 57 e1 3f 7e 6c e0 bf 66 15 a6 3d 4b f4 03 40
       1.7604904 -1.7533109 0.0810955 2.0617855
0001b0 33 33 01 3f c6 cc e3 3f f3 b2 73 bf 92 e8 78 bd
       0.5046875 1.7796867 -0.9519493 -0.06076867
0001c0 7e 9e bc 3f e3 fc e9 3f 78 2e d8 bf 96 b1 56 3f
       1.4735868 1.82803 -1.6889181 0.83864725
0001d0 60 29 86 be 96 39 07 bf 59 ed 49 be 5a 12 ba be
       -0.26203442 -0.52822244 -0.19719447 -0.36342126
0001e0 0f df d2 bf c5 fe f2 3f ce 60 9c 3c 64 b3 de bf
       -1.6474322 1.8984 0.019089129 -1.7398496
0001f0 67 e2 e0 3e 64 39 81 3f 25 46 ca 3f 12 25 5a bf
       0.4392273 1.0095639 1.5802656 -0.85212815
000200 7f 47 1d bf 09 df 73 bf bc 60 02 40 64 7f 9c bf
       -0.6143722 -0.952622 2.0371542 -1.2226377
000210 50 ae fb 3e ce d2 f9 be 59 f6 4d 3f 88 c3 e2 bf
       0.49156427 -0.48793644 0.8045402 -1.7715921
000220 71 1e 24 40 ed 7d ea bf 32 26 31 40 bb 09 43 40
       2.564358 -1.831968 2.7679563 3.047469
000230 d6 13 b7 3b 50 8c 26 c0 b6 74 1c 40 87 38 7b bd
       0.0055870814 -2.602314 2.4446235 -0.061333206
000240 f3 60 09 bf 91 8b bc be 9a cb 31 c0 e8 9c dc bd
       -0.5366356 -0.3682523 -2.7780519 -0.10772115
000250 96 cd dc bf d1 68 82 3f d5 ef 29 40 a6 82 25 40
       -1.725024 1.0188237 2.6552632 2.5860991
000260 9d 5a 6c 3f 47 55 b4 bf 96 8c 08 40 62 60 83 3f
       0.92325765 -1.4088525 2.1335807 1.0263789
000270 e6 a8 1b c0 15 93 00 c0 6a 09 41 c0 08 4a 1e 40
       -2.4321837 -2.0089772 -3.0161996 2.4732685
000280 95 6a 0e c0 30 9d cb bd 9e 5a 2a c0 4d 6c 13 40
       -2.2252553 -0.099420905 -2.6617808 2.3034852
000290 99 05 39 c0 a6 7d 15 40 b7 78 1b 40 9c d8 f7 bf
       -2.8909667 2.335794 2.4292428 -1.9362979
0002a0 f0 88 a3 3f 01 63 03 bf ae ff d5 3f 96 ff 05 c0
       1.2776165 -0.5132294 1.6718652 -2.0937247
0002b0 c0 b3 2f bf ea 24 c9 3f 6f b5 58 3e 36 95 c3 bf
       -0.6863365 1.571439 0.21162961 -1.527991
0002c0 96 e9 03 40 10 de db 3f 34 e7 9c be ed 49 6b bf
       2.061132 1.7177143 -0.30645144 -0.91909677
0002d0 ce 91 2e bf 6a bf 1d 40 3d e3 45 3f c5 40 97 3e
       -0.6819123 2.464808 0.77299863 0.29541603
0002e0 44 5e 27 c0 87 85 c3 bf a4 23 b9 bc b9 9f 38 3f
       -2.6151285 -1.5275124 -0.022600003 0.7211872
0002f0 84 d7 9b 3f 17 7d 3a 3e 77 a2 a5 3e f1 20 a6 bd
       1.2175145 0.1821178 0.32350513 -0.08111752
000300 7c b6 1e 3e 1e 4d 86 be b9 f8 b1 3e e5 aa df be
       0.154993 -0.2623071 0.34760073 -0.4368507
000310 1e 59 54 3e e7 22 18 3f 37 1c f4 be 87 b2 f3 3c
       0.2073712 0.59428257 -0.47677776 0.029748214
000320 8e c3 c7 3e 45 80 a5 3e b0 e0 30 3f b9 9c 1f be
       0.39016384 0.32324424 0.69092846 -0.15587129
000330 98 78 3a 3e 68 75 09 bb 95 d7 f5 3b 29 73 25 bf
       0.18210065 -0.002097452 0.007502506 -0.64628845
000340 58 da cc 3e b1 78 3d 3f 2e aa be 3e 8b db ae 3c
       0.40010333 0.74012285 0.37239212 0.02134492
000350 89 c6 d9 3e f0 eb 1b bf 36 47 00 3f 34 f9 18 3f
       0.42534283 -0.6090689 0.5010866 0.59755254
000360 f6 c5 e8 3e aa ab 93 3d c8 82 51 bf cb 40 46 3f
       0.45463532 0.07210477 -0.8184018 0.77442616
000370 67 07 03 bf 76 fb 1e 3f 29 32 68 3f 1f 85 3f bf
       -0.5118317 0.6210245 0.9070154 -0.748125
000380 7c 0a 58 3f 27 ba ef 3e 6c 8e e8 3e 8b eb ba 3e
       0.84391 0.4682171 0.4542116 0.3650783
000390 7a 8a 4e bf cb 88 4e 3f bf e4 22 3f 9d a5 ee ba
       -0.8068005 0.8067748 0.6363029 -0.0018207316
0003a0 18 80 d2 3e 40 cf 21 bf 0d 44 32 bf 5f 1e c9 3e
       0.41113353 -0.63206863 -0.6963509 0.39280984
0003b0 6c 3d 79 3e 27 a0 20 bf d3 2b db 3e 7a d9 a6 3e
       0.24339837 -0.62744373 0.42806873 0.32587796
0003c0 e5 c8 a6 3d f4 07 1f 3f 6b c4 36 be da cb 27 bd
       0.08143786 0.6212151 -0.17848365 -0.040965892
0003d0 b9 f6 7f bf 9a 5f 11 3f 2a a3 11 bf cd 79 7e bf
       -0.99985844 0.567865 -0.56889594 -0.99404603
0003e0 bb 04 b9 3d d1 26 88 3f ec 91 04 3e 99 16 60 bf
       0.090341054 1.0636846 0.1294629 -0.8753448
0003f0 97 44 95 3f 42 01 66 3f 50 ac 41 be c8 c4 dd 3e
       1.1661557 0.8984567 -0.18913388 0.43314195

sequential/conv2d_3/Conv2D i1 [128, 3, 3, 128]
000000 00 e6 c3 2b 02 5a 16 6c 2d 0b 0b 08 42 5e f4 de
       0 -26 -61 43 2 90 22 108 45 11 11 8 66 94 -12 -34
000010 10 48 ae 05 c0 b4 ff a3 18 d2 5a 09 3b d6 d7 c8
       16 72 -82 5 -64 -76 -1 -93 24 -46 90 9 59 -42 -41 -56
000020 04 1e a6 07 bc e6 b5 06 b1 dc f3 0a ef 00 36 30
       4 30 -90 7 -68 -26 -75 6 -79 -36 -13 10 -17 0 54 48
000030 ff db f5 d3 cd 0e 0a 38 e2 f7 d4 07 ec d4 ce 03
       -1 -37 -11 -45 -51 14 10 56 -30 -9 -44 7 -20 -44 -50 3
000040 1e 12 5e 0a ed 36 10 b0 69 18 45 cf da f6 09 cd
       30 18 94 10 -19 54 16 -80 105 24 69 -49 -38 -10 9 -51
000050 f4 fb 22 2a f5 6e 1d d0 b8 2a 4c e6 12 10 24 c0
       -12 -5 34 42 -11 110 29 -48 -72 42 76 -26 18 16 36 -64
000060 06 fb 1d ad 02 20 0b 64 b3 3f 4f f6 5b e9 fe 2e
       6 -5 29 -83 2 32 11 100 -77 63 79 -10 91 -23 -2 46
000070 3a df db d5 e8 e3 0a fd cc 37 33 07 e2 b4 ed 20
       58 -33 -37 -43 -24 -29 10 -3 -52 55 51 7 -30 -76 -19 32
000080 00 e3 df fe fd 62 0f 40 3b 12 b8 3a 36 30 e3 d1
       0 -29 -33 -2 -3 98 15 64 59 18 -72 58 54 48 -29 -47
000090 be bc cb 13 ca b7 e5 a1 f0 21 d1 48 33 22 c3 c9
       -66 -68 -53 19 -54 -73 -27 -95 -16 33 -47 72 51 34 -61 -55
0000a0 9a df ff f6 fc ff ae fa 11 cd 00 09 e3 2a 40 da
       -102 -33 -1 -10 -4 -1 -82 -6 17 -51 0 9 -29 42 64 -38
0000b0 fc 42 ed e4 05 07 19 09 33 f1 f7 68 fc d6 0f 04
       -4 66 -19 -28 5 7 25 9 51 -15 -9 104 -4 -42 15 4
0000c0 48 17 9b 6d 53 af ae af d0 07 b2 6c eb f3 01 fd
       72 23 -101 109 83 -81 -82 -81 -48 7 -78 108 -21 -13 1 -3
0000d0 c5 ff 0e f6 f1 37 ec 12 ca 9f 19 3b ed ae 16 fa
       -59 -1 14 -10 -15 55 -20 18 -54 -97 25 59 -19 -82 22 -6
0000e0 e0 26 25 9f 15 df 17 d5 c0 fe 49 b2 4d ea ae 39
       -32 38 37 -97 21 -33 23 -43 -64 -2 73 -78 77 -22 -82 57
0000f0 a8 c7 4d 1c 28 64 4e 03 ae e4 f6 27 2e 39 c3 01
       -88 -57 77 28 40 100 78 3 -82 -28 -10 39 46 57 -61 1

sequential/conv2d_2/Conv2D i1 [128, 3, 3, 64]
000000 ab f9 32 ff f7 ff 02 00 ff 00 00 4b 00 01 00 00
       -85 -7 50 -1 -9 -1 2 0 -1 0 0 75 0 1 0 0
000010 01 00 00 00 17 fd 00 ff 00 fc 7f ff f6 ff a4 e4
       1 0 0 0 23 -3 0 -1 0 -4 127 -1 -10 -1 -92 -28
000020 f2 fe ed ff 08 f9 ef 00 ef 18 ff ff fd 00 00 fe
       -14 -2 -19 -1 8 -7 -17 0 -17 24 -1 -1 -3 0 0 -2
000030 ff fd ff 00 f8 b0 fc 00 d6 1d ff 00 ff ff 00 00
       -1 -3 -1 0 -8 -80 -4 0 -42 29 -1 0 -1 -1 0 0
000040 ff 00 02 e4 03 fe ff 00 17 ff aa ef 26 00 00 02
       -1 0 2 -28 3 -2 -1 0 23 -1 -86 -17 38 0 0 2
000050 d8 ff 1f 00 23 ff e8 f5 c6 b4 09 fe f8 f3 09 02
       -40 -1 31 0 35 -1 -24 -11 -58 -76 9 -2 -8 -13 9 2
000060 fd fe 00 e0 00 00 ff cf d0 c7 ff ff f6 36 f4 fe
       -3 -2 0 -32 0 0 -1 -49 -48 -57 -1 -1 -10 54 -12 -2
000070 ff fd 00 de ff 19 e0 03 05 00 ff 00 d5 ff 06 ff
       -1 -3 0 -34 -1 25 -32 3 5 0 -1 0 -43 -1 6 -1
000080 fe c6 ef 06 ff ff 4f 00 fb 06 00 b3 00 ff 04 14
       -2 -58 -17 6 -1 -1 79 0 -5 6 0 -77 0 -1 4 20
000090 01 ff 00 00 00 e1 c5 d9 2e cd 66 d6 fe 00 ff 00
       1 -1 0 0 0 -31 -59 -39 46 -51 102 -42 -2 0 -1 0
0000a0 e2 ff 00 70 00 ff d6 00 21 00 ed 0a fc 00 00 b8
       -30 -1 0 112 0 -1 -42 0 33 0 -19 10 -4 0 0 -72
0000b0 00 fd e9 00 c5 ff 2d be 00 ff ff c8 00 ff fc fe
       0 -3 -23 0 -59 -1 45 -66 0 -1 -1 -56 0 -1 -4 -2
0000c0 ff ed 02 00 00 ff c6 00 4d 17 0a fa f7 00 01 2e
       -1 -19 2 0 0 -1 -58 0 77 23 10 -6 -9 0 1 46
0000d0 e2 f1 f0 fb 00 eb fd fe 00 d7 c9 ff 00 ff 00 f7
       -30 -15 -16 -5 0 -21 -3 -2 0 -41 -55 -1 0 -1 0 -9
0000e0 65 fe 4f 09 cb 36 06 00 1a 01 fe 00 01 00 f9 fe
       101 -2 79 9 -53 54 6 0 26 1 -2 0 1 0 -7 -2
0000f0 fe ff ed e9 00 13 fc 00 00 e5 cf ea 00 f7 20 00
       -2 -1 -19 -23 0 19 -4 0 0 -27 -49 -22 0 -9 32 0

sequential/conv2d_1/Conv2D i1 [64, 3, 3, 32]
000000 dc bc a5 60 31 48 a0 e8 cb ab c1 d5 02 97 4e 62
       -36 -68 -91 96 49 72 -96 -24 -53 -85 -63 -43 2 -105 78 98
000010 25 28 d7 d5 be ac 60 3a ba 41 b7 f9 a1 08 26 b0
       37 40 -41 -43 -66 -84 96 58 -70 65 -73 -7 -95 8 38 -80
000020 b6 62 fa 4a 22 0f 57 23 0c 31 2f 23 08 f4 ea 42
       -74 98 -6 74 34 15 87 35 12 49 47 35 8 -12 -22 66
000030 c4 5e 10 a2 05 95 f3 f7 a3 c4 48 11 1e 1c 31 07
       -60 94 16 -94 5 -107 -13 -9 -93 -60 72 17 30 28 49 7
000040 53 ac 25 f0 27 00 a0 34 44 d3 55 e8 49 cc 48 eb
       83 -84 37 -16 39 0 -96 52 68 -45 85 -24 73 -52 72 -21
000050 e6 55 bb 60 b5 23 1e b6 fb 4c 12 07 b1 46 ec ca
       -26 85 -69 96 -75 35 30 -74 -5 76 18 7 -79 70 -20 -54
000060 33 b6 49 57 c8 54 a4 6a f7 a2 01 b9 6c 69 b8 10
       51 -74 73 87 -56 84 -92 106 -9 -94 1 -71 108 105 -72 16
000070 f5 ff ab b2 05 c3 ad dc 31 c8 41 e9 55 2b a0 7f
       -11 -1 -85 -78 5 -61 -83 -36 49 -56 65 -23 85 43 -96 127
000080 10 ce bb 12 5b 32 28 cf 6a 5f f1 33 36 5e 3c 32
       16 -50 -69 18 91 50 40 -49 106 95 -15 51 54 94 60 50
000090 47 36 cb 94 ce e2 ce a1 d7 12 cb b5 27 c9 17 71
       71 54 -53 -108 -50 -30 -50 -95 -41 18 -53 -75 39 -55 23 113
0000a0 64 e8 9c 4f 0d 25 bd 51 3f ce 2b b4 ff 53 ad b6
       100 -24 -100 79 13 37 -67 81 63 -50 43 -76 -1 83 -83 -74
0000b0 fb 95 e4 f6 27 06 31 35 b8 61 ff b2 d0 e5 ae 78
       -5 -107 -28 -10 39 6 49 53 -72 97 -1 -78 -48 -27 -82 120
0000c0 27 f1 fe a4 24 fb 64 28 44 a2 3b 0e 2b a4 e1 b3
       39 -15 -2 -92 36 -5 100 40 68 -94 59 14 43 -92 -31 -77
0000d0 14 18 28 3f eb 4c 1d cb dc 39 50 69 14 e5 33 a0
       20 24 40 63 -21 76 29 -53 -36 57 80 105 20 -27 51 -96
0000e0 42 cc e5 13 d2 fa 07 35 d5 44 bf d0 96 98 e8 38
       66 -52 -27 19 -46 -6 7 53 -43 68 -65 -48 -106 -104 -24 56
0000f0 ec 33 ff cf 22 e0 dd ca 1d 5a df e5 9e a2 63 02
       -20 51 -1 -49 34 -32 -35 -54 29 90 -33 -27 -98 -94 99 2

sequential/dense/MatMul i1 [512, 1152] scale=0.0004259028 zero_point=0
000000 00 fe 05 0d 22 f9 03 fc 0e fd fd 2c 00 00 02 f4
       0.0 -0.0008518056 0.002129514 0.0055367365 0.014480695 -0.0029813196 0.0012777084 -0.0017036112 0.005962639 -0.0012777084 -0.0012777084 0.018739723 0.0 0.0 0.0008518056 -0.005110834
000010 fe 02 ff 14 f4 fb 01 fd fa f3 01 f2 f2 ff 23 fe
       -0.0008518056 0.0008518056 -0.0004259028 0.008518056 -0.005110834 -0.002129514 0.0004259028 -0.0012777084 -0.002555417 -0.0055367365 0.0004259028 -0.005962639 -0.005962639 -0.0004259028 0.014906598 -0.0008518056
000020 df 15 18 00 fa 0c 04 02 11 f8 fd 03 3b fd dd 0d
       -0.014054793 0.008943959 0.010221668 0.0 -0.002555417 0.005110834 0.0017036112 0.0008518056 0.0072403476 -0.0034072225 -0.0012777084 0.0012777084 0.025128266 -0.0012777084 -0.014906598 0.0055367365
000030 0d 0b 0b 0c 12 fd fe 14 00 15 26 1f 10 01 fe 04
       0.0055367365 0.0046849307 0.0046849307 0.005110834 0.0076662507 -0.0012777084 -0.0008518056 0.008518056 0.0 0.008943959 0.016184306 0.013202987 0.006814445 0.0004259028 -0.0008518056 0.0017036112
000040 3c 19 07 00 00 02 05 01 0e fa 29 13 f3 fd 11 ff
       0.025554169 0.01064757 0.0029813196 0.0 0.0 0.0008518056 0.002129514 0.0004259028 0.005962639 -0.002555417 0.017462015 0.008092153 -0.0055367365 -0.0012777084 0.0072403476 -0.0004259028
000050 00 e5 ff f1 0e db 01 fd 22 fc 28 fb 17 2c 01 25
       0.0 -0.011499376 -0.0004259028 -0.0063885422 0.005962639 -0.015758405 0.0004259028 -0.0012777084 0.014480695 -0.0017036112 0.017036112 -0.002129514 0.009795764 0.018739723 0.0004259028 0.015758405
000060 ee fe 22 04 16 f6 ff fd 02 e9 04 ff fd fb ff fb
       -0.0076662507 -0.0008518056 0.014480695 0.0017036112 0.009369861 -0.004259028 -0.0004259028 -0.0012777084 0.0008518056 -0.009795764 0.0017036112 -0.0004259028 -0.0012777084 -0.002129514 -0.0004259028 -0.002129514
000070 ea 02 27 02 00 02 fa fa 09 0b 03 18 0a ff fd fe
       -0.009369861 0.0008518056 0.016610209 0.0008518056 0.0 0.0008518056 -0.002555417 -0.002555417 0.0038331253 0.0046849307 0.0012777084 0.010221668 0.004259028 -0.0004259028 -0.0012777084 -0.0008518056
000080 1f 01 04 fe f5 ff fd ff 24 fc ff 35 00 03 fe fa
       0.013202987 0.0004259028 0.0017036112 -0.0008518056 -0.0046849307 -0.0004259028 -0.0012777084 -0.0004259028 0.015332501 -0.0017036112 -0.0004259028 0.022572849 0.0 0.0012777084 -0.0008518056 -0.002555417
000090 00 03 ff fd 05 fa ff e0 01 f5 00 ef f5 ff 23 fc
       0.0 0.0012777084 -0.0004259028 -0.0012777084 0.002129514 -0.002555417 -0.0004259028 -0.01362889 0.0004259028 -0.0046849307 0.0 -0.0072403476 -0.0046849307 -0.0004259028 0.014906598 -0.0017036112
0000a0 18 ee 04 f4 00 07 0b 01 fd 21 ff 2c f2 14 17 10
       0.010221668 -0.0076662507 0.0017036112 -0.005110834 0.0 0.0029813196 0.0046849307 0.0004259028 -0.0012777084 0.014054793 -0.0004259028 0.018739723 -0.005962639 0.008518056 0.009795764 0.006814445
0000b0 32 03 00 02 03 01 fd ff 03 01 fc d1 00 0b fe 01
       0.02129514 0.0012777084 0.0 0.0008518056 0.0012777084 0.0004259028 -0.0012777084 -0.0004259028 0.0012777084 0.0004259028 -0.0017036112 -0.020017432 0.0 0.0046849307 -0.0008518056 0.0004259028
0000c0 2c 2e 04 00 02 00 02 01 ff 03 fc 00 25 fd e5 fe
       0.018739723 0.019591529 0.0017036112 0.0 0.0008518056 0.0 0.0008518056 0.0004259028 -0.0004259028 0.0012777084 -0.0017036112 0.0 0.015758405 -0.0012777084 -0.011499376 -0.0008518056
0000d0 00 ef 01 01 fb 06 00 f8 35 f6 f8 09 11 17 ff e1
       0.0 -0.0072403476 0.0004259028 0.0004259028 -0.002129514 0.002555417 0.0 -0.0034072225 0.022572849 -0.004259028 -0.0034072225 0.0038331253 0.0072403476 0.009795764 -0.0004259028 -0.013202987
0000e0 14 f5 0d 05 e5 fb fe fd fd 04 f4 fb fe 02 00 09
       0.008518056 -0.0046849307 0.0055367365 0.002129514 -0.011499376 -0.002129514 -0.0008518056 -0.0012777084 -0.0012777084 0.0017036112 -0.005110834 -0.002129514 -0.0008518056 0.0008518056 0.0 0.0038331253
0000f0 ea 02 f7 00 00 03 00 0c 0d 04 00 ea fa 05 fb fd
       -0.009369861 0.0008518056 -0.0038331253 0.0 0.0 0.0012777084 0.0 0.005110834 0.0055367365 0.0017036112 0.0 -0.009369861 -0.002555417 0.002129514 -0.002129514 -0.0012777084
